outputs/wind_speed.pt (torch, 95716 bytes, 14 tensors)

embedding_layer.embedding.weight f4 [100, 5]
00000000: b3e3 053e f981 eb3c 07e9 c63d 6ca0 34bc
00000010: ef4b 443d 5a2b 733e db02 d3bd f90b 503d
00000020: e575 5e3e 58a1 073e 079b 33be 036d 183a
00000030: 9533 c8bb a80c fabc 6b0a 9bbd 1fcf f83d
00000040: f3bc f6bc 4d68 1dbe 814f 9b3d 9fe2 88bd
00000050: d41d 42be 0f0c 4ebc a079 c1bd 525d 94b8
00000060: df2d 3fbe 9a95 92bd 83de fd3d 85ae 1dbe
00000070: e314 e03d 852b 4bbd 822d 083d ba68 dd3d
00000080: 723c 323e 9c1a d33c 0797 47be 2a78 6f3c
00000090: 30f7 b2bc 72d7 9fbc e2a9 a83e 885b 31be
000000a0: 86bd 4c3c a829 09bc 7640 11be b660 47bd
000000b0: dcd3 35be 495c 99be ad60 813c 9d98 c0bd
000000c0: fc4a a5bc fba0 05bd 250f 06be e91c a83d
000000d0: 9bc2 eabc 0714 c3bd c8df 9ebd 4e35 b13c
000000e0: 2782 a5ba 1ebe 06be 283c b43b 2adb 03be
000000f0: a423 ac3d 2850 143d 852b 0cbd 0a56 a93d
00000100: 6da8 f93b e706 ecbd eef2 5fbb b29e 67be
00000110: f9be 2a3e 0bd0 2ebc be21 15bd 0b03 29bc
00000120: 81cd 20bc 6b6a 5c3d 7b70 803d 78fc 43bd
00000130: f85b 9d3d 28f9 8d3d 06d0 753d b8b1 b13d
00000140: 1330 023b c8f1 9b3c 2492 d1bc 6d14 893c
00000150: c2b1 69be 4c91 d9bd d0b6 1b3e 8239 5a3c
00000160: 1d0a 493d 269d cfbd f47e fa3d c1b2 ce3d
00000170: 7835 3f3e c970 cb3d 54c4 2abd bfea 53be
00000180: 46ab 1a3e fe1b bdbd 18e3 3c3d b68f 793c
00000190: 4be3 1e3d 65b1 3c3d 618f dfbd 0c8a 003d
000001a0: 5b99 463d c23b b3bd 946f ab3c fd23 d23c
000001b0: bb4a 6cbd d7a9 0c3d edd6 623d fe99 9dbd
000001c0: 2829 703c d9f9 5b3e f0f9 e73b 21c0 283e
000001d0: 31e7 a93d c92b a8ba dd90 873d 4435 7c3d
000001e0: 1c26 fbbd c9aa 90bc 3b03 963d e88d 9f3d
000001f0: 365d 1f3d 83bb 64be 1274 933d c7b6 6abe
00000200: faf5 9e3d 82d4 1cbc f1a4 e4bd 95de 043d
00000210: 90de 5fbd eade 0b3e 3561 28be f69e 613d
00000220: 3a33 523e 02dc 8e3d 1a05 cf3d 8f91 0ebe
00000230: 0edc e0bc a11c e23d 5161 3e3e 01ab 243d
00000240: 7ec7 b2bd 6451 38bd e530 d03d b78c b43d
00000250: 261c 8e3d 7abf 11bd 1a0e b4bc efc1 02be
00000260: 01c9 84be 3203 0b3e 1499 94bd 6e4c f2bd
00000270: 8229 2e3e de76 bbbd 3296 60bc 1d28 053e
00000280: b101 473b 32d8 d2bd 03ae f93c 8512 0e3e
00000290: d737 40be a98b dcbd f138 8bbd f506 97bd
000002a0: ec37 193d 7e64 423d 58a2 b03d d154 423c
000002b0: 7fa9 ffbd 3f32 1c3e 5220 473e 1e58 94bc
000002c0: aed9 bb3d e1b5 97bb 4bb5 e53c 5dd9 563d
000002d0: 7c35 31be b12f 3d3d c802 d9bd 5dc2 8f3d
000002e0: 72da fbbd a344 9dbe 4cce d23d ef25 aebc
000002f0: 20f7 c73c 0262 99bc b58f b1bd 74f9 173e
00000300: 6f66 383e e0bd eebc 95d3 5cbe 3c68 b0bd
00000310: aa6a fabc 10b2 713a bb77 463d ed4d 90bd
00000320: 4be7 a83c 43b4 383b 2de2 803c 1980 133c
00000330: 8803 043c 12c0 173d 4d25 ba3d dad6 c5bc
00000340: 7922 e23c b7f2 f83d 8a69 b9bd 04e8 033d
00000350: a92d 433c b884 8bbd af22 9d3d aa9e c23b
00000360: 6490 b0bd 33c0 8bbd 4f1f acbd 716f 41bd
00000370: a30c 043e 8f97 4ebe 3bb4 01be 1468 f13d
00000380: 0a4d b23d a756 81bd f411 bdbc 24b4 86bd
00000390: 40a7 c43d 36ea ac3d cdcf 013c cbcc c43d
000003a0: 31c0 a63d ef4f ee3c a9e3 2cbd a251 303c
000003b0: 4624 8abe 46d8 fbbc 8d60 883e 6535 2cbd
000003c0: 67ee 46bd ab45 55bc ef8b cabd 4f6d 0b3e
000003d0: 5766 31bd 7e1b aabd a69f 0bbd 2023 64be
000003e0: b5f9 a83e ada2 0e3d 037d 143e 373d 0fbd
000003f0: 79ca 27bd 3d3e 3f3d 6aab bdbd 71a8 9fbd
0.13075142 0.0287485 0.09712415 -0.011024576 0.04792398 0.23747006 -0.10303279 0.050792668
0.2172466 0.13245142 -0.17539607 0.0005814584 -0.0061096647 -0.030523613 -0.075703464 0.1214888
-0.030119395 -0.15371819 0.075835235 -0.066838495 -0.18956691 -0.012576117 -0.09447026 -7.074572e-05
-0.18669842 -0.071574405 0.12395956 -0.15398605 0.10941484 -0.04960205 0.033246525 0.10810991
0.1740587 0.025769524 -0.19491206 0.014616052 -0.021846384 -0.019511912 0.3294211 -0.17320073
0.012496358 -0.008371748 -0.14184746 -0.048676215 -0.17756599 -0.2995322 0.015793169 -0.09404109
-0.020177357 -0.032624226 -0.13091715 0.08208639 -0.028657248 -0.09525304 -0.07757527 0.021631863
-0.0012627289 -0.13158461 0.0055003352 -0.12876573 0.084052354 0.036209255 -0.03422119 0.08268364
0.007618955 -0.11524754 -0.0034171897 -0.22619131 0.16674413 -0.0106697185 -0.036409132 -0.010315667
-0.009814621 0.053812426 0.06271454 -0.047848195 0.07683557 0.069322884 0.06001284 0.08676475
0.001986508 0.019036189 -0.02558238 0.016733373 -0.22821715 -0.10623416 0.15206456 0.013319375
0.04908191 -0.101373956 0.12231246 0.10092688 0.1867274 0.099336214 -0.04169114 -0.20695017
0.15104398 -0.09233855 0.04611501 0.015232017 0.038790982 0.046067614 -0.10916019 0.03138165
0.048486095 -0.08751632 0.020927228 0.025651926 -0.057688456 0.03434166 0.05538075 -0.07695387
0.01465825 0.21482028 0.0070793554 0.16479541 0.082960494 -0.0012830432 0.06619427 0.061574236
-0.12263128 -0.017659562 0.07324835 0.07790738 0.038907252 -0.22337155 0.07199873 -0.22921287
0.0776176 -0.00957215 -0.111642726 0.032438833 -0.05465561 0.13659254 -0.16443332 0.055083238
0.20527354 0.06975557 0.10108395 -0.13922714 -0.02744868 0.11040617 0.18591811 0.040202145
-0.08729456 -0.044999495 0.10165576 0.08815902 0.06938963 -0.035582997 -0.02197938 -0.12769292
-0.25934604 0.13575438 -0.0725576 -0.11830984 0.17008021 -0.091535315 -0.013707684 0.13003583
0.0030365998 -0.10295142 0.030478483 0.13874252 -0.18771301 -0.107688256 -0.0679797 -0.07374374
0.037406847 0.047459118 0.086247146 0.011861042 -0.12483501 0.15253542 0.19445923 -0.018108424
0.091723785 -0.004629836 0.028040549 0.052453388 -0.17305559 0.04618806 -0.105962336 0.07019494
-0.122975245 -0.30716428 0.10293254 -0.021258323 0.02440983 -0.018723492 -0.08669988 0.14841253
0.18007825 -0.029143274 -0.21565087 -0.08613631 -0.03056844 0.0009219954 0.048454028 -0.07046113
0.020618102 0.0028183616 0.015732849 0.009002709 0.008057483 0.037048407 0.09089146 -0.0241503
0.027604328 0.12155669 -0.09053333 0.03220369 0.011912742 -0.068124235 0.07672631 0.0059393244
-0.0862129 -0.068237685 -0.08404409 -0.04722542 0.12895446 -0.20175003 -0.12666409 0.117874295
0.087061 -0.06315356 -0.02307985 -0.06577328 0.09602213 0.0844311 0.007923079 0.09609374
0.08142126 0.02909085 -0.0422093 0.01076165 -0.269808 -0.030742776 0.26636162 -0.04204311
-0.048567202 -0.013017098 -0.098899715 0.13615917 -0.04331049 -0.08306025 -0.0340878 -0.22279024
0.3300301 0.03482311 0.14500813 -0.03497049 -0.040964577 0.046690214 -0.0926121 -0.077957995

encoder.embedding_layer.embedding.weight f4 [100, 5]
00000000: b3e3 053e f981 eb3c 07e9 c63d 6ca0 34bc
00000010: ef4b 443d 5a2b 733e db02 d3bd f90b 503d
00000020: e575 5e3e 58a1 073e 079b 33be 036d 183a
00000030: 9533 c8bb a80c fabc 6b0a 9bbd 1fcf f83d
00000040: f3bc f6bc 4d68 1dbe 814f 9b3d 9fe2 88bd
00000050: d41d 42be 0f0c 4ebc a079 c1bd 525d 94b8
00000060: df2d 3fbe 9a95 92bd 83de fd3d 85ae 1dbe
00000070: e314 e03d 852b 4bbd 822d 083d ba68 dd3d
00000080: 723c 323e 9c1a d33c 0797 47be 2a78 6f3c
00000090: 30f7 b2bc 72d7 9fbc e2a9 a83e 885b 31be
000000a0: 86bd 4c3c a829 09bc 7640 11be b660 47bd
000000b0: dcd3 35be 495c 99be ad60 813c 9d98 c0bd
000000c0: fc4a a5bc fba0 05bd 250f 06be e91c a83d
000000d0: 9bc2 eabc 0714 c3bd c8df 9ebd 4e35 b13c
000000e0: 2782 a5ba 1ebe 06be 283c b43b 2adb 03be
000000f0: a423 ac3d 2850 143d 852b 0cbd 0a56 a93d
00000100: 6da8 f93b e706 ecbd eef2 5fbb b29e 67be
00000110: f9be 2a3e 0bd0 2ebc be21 15bd 0b03 29bc
00000120: 81cd 20bc 6b6a 5c3d 7b70 803d 78fc 43bd
00000130: f85b 9d3d 28f9 8d3d 06d0 753d b8b1 b13d
00000140: 1330 023b c8f1 9b3c 2492 d1bc 6d14 893c
00000150: c2b1 69be 4c91 d9bd d0b6 1b3e 8239 5a3c
00000160: 1d0a 493d 269d cfbd f47e fa3d c1b2 ce3d
00000170: 7835 3f3e c970 cb3d 54c4 2abd bfea 53be
00000180: 46ab 1a3e fe1b bdbd 18e3 3c3d b68f 793c
00000190: 4be3 1e3d 65b1 3c3d 618f dfbd 0c8a 003d
000001a0: 5b99 463d c23b b3bd 946f ab3c fd23 d23c
000001b0: bb4a 6cbd d7a9 0c3d edd6 623d fe99 9dbd
000001c0: 2829 703c d9f9 5b3e f0f9 e73b 21c0 283e
000001d0: 31e7 a93d c92b a8ba dd90 873d 4435 7c3d
000001e0: 1c26 fbbd c9aa 90bc 3b03 963d e88d 9f3d
000001f0: 365d 1f3d 83bb 64be 1274 933d c7b6 6abe
00000200: faf5 9e3d 82d4 1cbc f1a4 e4bd 95de 043d
00000210: 90de 5fbd eade 0b3e 3561 28be f69e 613d
00000220: 3a33 523e 02dc 8e3d 1a05 cf3d 8f91 0ebe
00000230: 0edc e0bc a11c e23d 5161 3e3e 01ab 243d
00000240: 7ec7 b2bd 6451 38bd e530 d03d b78c b43d
00000250: 261c 8e3d 7abf 11bd 1a0e b4bc efc1 02be
00000260: 01c9 84be 3203 0b3e 1499 94bd 6e4c f2bd
00000270: 8229 2e3e de76 bbbd 3296 60bc 1d28 053e
00000280: b101 473b 32d8 d2bd 03ae f93c 8512 0e3e
00000290: d737 40be a98b dcbd f138 8bbd f506 97bd
000002a0: ec37 193d 7e64 423d 58a2 b03d d154 423c
000002b0: 7fa9 ffbd 3f32 1c3e 5220 473e 1e58 94bc
000002c0: aed9 bb3d e1b5 97bb 4bb5 e53c 5dd9 563d
000002d0: 7c35 31be b12f 3d3d c802 d9bd 5dc2 8f3d
000002e0: 72da fbbd a344 9dbe 4cce d23d ef25 aebc
000002f0: 20f7 c73c 0262 99bc b58f b1bd 74f9 173e
00000300: 6f66 383e e0bd eebc 95d3 5cbe 3c68 b0bd
00000310: aa6a fabc 10b2 713a bb77 463d ed4d 90bd
00000320: 4be7 a83c 43b4 383b 2de2 803c 1980 133c
00000330: 8803 043c 12c0 173d 4d25 ba3d dad6 c5bc
00000340: 7922 e23c b7f2 f83d 8a69 b9bd 04e8 033d
00000350: a92d 433c b884 8bbd af22 9d3d aa9e c23b
00000360: 6490 b0bd 33c0 8bbd 4f1f acbd 716f 41bd
00000370: a30c 043e 8f97 4ebe 3bb4 01be 1468 f13d
00000380: 0a4d b23d a756 81bd f411 bdbc 24b4 86bd
00000390: 40a7 c43d 36ea ac3d cdcf 013c cbcc c43d
000003a0: 31c0 a63d ef4f ee3c a9e3 2cbd a251 303c
000003b0: 4624 8abe 46d8 fbbc 8d60 883e 6535 2cbd
000003c0: 67ee 46bd ab45 55bc ef8b cabd 4f6d 0b3e
000003d0: 5766 31bd 7e1b aabd a69f 0bbd 2023 64be
000003e0: b5f9 a83e ada2 0e3d 037d 143e 373d 0fbd
000003f0: 79ca 27bd 3d3e 3f3d 6aab bdbd 71a8 9fbd
0.13075142 0.0287485 0.09712415 -0.011024576 0.04792398 0.23747006 -0.10303279 0.050792668
0.2172466 0.13245142 -0.17539607 0.0005814584 -0.0061096647 -0.030523613 -0.075703464 0.1214888
-0.030119395 -0.15371819 0.075835235 -0.066838495 -0.18956691 -0.012576117 -0.09447026 -7.074572e-05
-0.18669842 -0.071574405 0.12395956 -0.15398605 0.10941484 -0.04960205 0.033246525 0.10810991
0.1740587 0.025769524 -0.19491206 0.014616052 -0.021846384 -0.019511912 0.3294211 -0.17320073
0.012496358 -0.008371748 -0.14184746 -0.048676215 -0.17756599 -0.2995322 0.015793169 -0.09404109
-0.020177357 -0.032624226 -0.13091715 0.08208639 -0.028657248 -0.09525304 -0.07757527 0.021631863
-0.0012627289 -0.13158461 0.0055003352 -0.12876573 0.084052354 0.036209255 -0.03422119 0.08268364
0.007618955 -0.11524754 -0.0034171897 -0.22619131 0.16674413 -0.0106697185 -0.036409132 -0.010315667
-0.009814621 0.053812426 0.06271454 -0.047848195 0.07683557 0.069322884 0.06001284 0.08676475
0.001986508 0.019036189 -0.02558238 0.016733373 -0.22821715 -0.10623416 0.15206456 0.013319375
0.04908191 -0.101373956 0.12231246 0.10092688 0.1867274 0.099336214 -0.04169114 -0.20695017
0.15104398 -0.09233855 0.04611501 0.015232017 0.038790982 0.046067614 -0.10916019 0.03138165
0.048486095 -0.08751632 0.020927228 0.025651926 -0.057688456 0.03434166 0.05538075 -0.07695387
0.01465825 0.21482028 0.0070793554 0.16479541 0.082960494 -0.0012830432 0.06619427 0.061574236
-0.12263128 -0.017659562 0.07324835 0.07790738 0.038907252 -0.22337155 0.07199873 -0.22921287
0.0776176 -0.00957215 -0.111642726 0.032438833 -0.05465561 0.13659254 -0.16443332 0.055083238
0.20527354 0.06975557 0.10108395 -0.13922714 -0.02744868 0.11040617 0.18591811 0.040202145
-0.08729456 -0.044999495 0.10165576 0.08815902 0.06938963 -0.035582997 -0.02197938 -0.12769292
-0.25934604 0.13575438 -0.0725576 -0.11830984 0.17008021 -0.091535315 -0.013707684 0.13003583
0.0030365998 -0.10295142 0.030478483 0.13874252 -0.18771301 -0.107688256 -0.0679797 -0.07374374
0.037406847 0.047459118 0.086247146 0.011861042 -0.12483501 0.15253542 0.19445923 -0.018108424
0.091723785 -0.004629836 0.028040549 0.052453388 -0.17305559 0.04618806 -0.105962336 0.07019494
-0.122975245 -0.30716428 0.10293254 -0.021258323 0.02440983 -0.018723492 -0.08669988 0.14841253
0.18007825 -0.029143274 -0.21565087 -0.08613631 -0.03056844 0.0009219954 0.048454028 -0.07046113
0.020618102 0.0028183616 0.015732849 0.009002709 0.008057483 0.037048407 0.09089146 -0.0241503
0.027604328 0.12155669 -0.09053333 0.03220369 0.011912742 -0.068124235 0.07672631 0.0059393244
-0.0862129 -0.068237685 -0.08404409 -0.04722542 0.12895446 -0.20175003 -0.12666409 0.117874295
0.087061 -0.06315356 -0.02307985 -0.06577328 0.09602213 0.0844311 0.007923079 0.09609374
0.08142126 0.02909085 -0.0422093 0.01076165 -0.269808 -0.030742776 0.26636162 -0.04204311
-0.048567202 -0.013017098 -0.098899715 0.13615917 -0.04331049 -0.08306025 -0.0340878 -0.22279024
0.3300301 0.03482311 0.14500813 -0.03497049 -0.040964577 0.046690214 -0.0926121 -0.077957995

encoder.rnn.weight_ih_l0 f4 [192, 17]
00000000: f121 8fbd ff9f 04be 61f5 513e fadb 62bd
00000010: 4653 a5bd 98e6 7a3d 8cbf 403e 624d 43bd
00000020: a53c ad3b 0d4c 4e3e 5255 e23d a77a 9c3d
00000030: 7901 dcbd 87fa 92be ff7d 17be c9eb d9bd
00000040: f2a5 a8bd 06a1 39bc 31e2 30be 1dc3 0cbc
00000050: d1a1 703d a94e 98bd c405 c63c 0c8d ffbd
00000060: b5ff cdbc ae9c 253d 81cd 623e 47eb 953d
00000070: 98e0 a03c 63f7 8fbd 7488 75bb e120 c4bd
00000080: 4e11 ab3d 303f 2a3d d339 213e ebe4 12bd
00000090: 0026 cc3d 3379 463d f646 183e 706e 56bc
000000a0: 0e30 323e 943b 85bd f407 523e fb0e ab3b
000000b0: 12b0 efbc 4054 b0bc fd93 163d 5cd9 1b3e
000000c0: b4c0 283c 6a1a 073e 679b f73d b351 23be
000000d0: 9665 e3bd 9dc8 523d 9142 bbbc f573 12bd
000000e0: d043 f03d f84f ad3c 295b 97be b7b4 883d
000000f0: 7a22 7d3d 1db9 0cbd 83e8 cc3d 4e04 6fbc
00000100: a225 34bd a3d5 0ebe 8b1e e23c bae1 7abc
00000110: a7d3 433e 052f 753e 967b 653e e44f 463d
00000120: 32bf 3b3c 9481 593e 966a 46bb 2271 3e3e
00000130: 05f0 a3bc e265 5c3d 17fa 26be 7408 863c
00000140: 0994 20be 1d61 c53a 7092 e7bb a424 e03d
00000150: d928 0c3e 547d da3d 55c7 03be bf1b 503e
00000160: ce12 e43b b65e 3fbd 1d01 933d 976d 63bc
00000170: 73d7 c33c 66ff 083e bf2c b03d 45ba 003e
00000180: d294 23bd 61ab 243e 6a67 e6bd 5228 f1bd
00000190: fcf7 2fbe bc9f c73d e11a 2a3d 0c7e 4a3c
000001a0: 086d 853d 0054 3b3d c20a b13b 7508 babc
000001b0: 53e6 0fbd 6059 1f3b 6869 0bbe fb90 03be
000001c0: cea8 883d e4a7 973d d10d 29bc c056 6abd
000001d0: 5f45 c2bc aad1 743d 1e28 70bd 1c2a 06bd
000001e0: 1433 023d 111c 9fbc a2ff 35be 4bc1 073e
000001f0: 68f7 27be 39dd e63d cf6f 58bd b37e a73d
00000200: 4e5c 573d 4e8d 13be 9320 cdbc eede 9c3d
00000210: 020e 20bd 0d62 07bd 0313 31be eb2c 163e
00000220: 3f41 d0bd c5f0 3f3e d047 06be 293a 8f3d
00000230: 573d 3a3d fef1 a3bd de62 f4bd 2bb0 6ebd
00000240: a95c 73be e383 4bbd 2883 08be ed27 a7bd
00000250: 2884 3f3d 9515 0ebe a582 013e db6b 763e
00000260: 4935 1b3e 40fd ef3d 0081 473d 276d 1ebe
00000270: a19c 0c3e 56f9 3f3d 7696 9f3d 5484 1f3d
00000280: 6bf1 4c3e b3d2 1f3d 5213 933e 4499 953d
00000290: 07a1 bb3d 9345 e4bc 1cf7 1d3e ae96 07bd
000002a0: e5d6 12be 9ae1 933d 28f4 1d3e 5aa8 953d
000002b0: 537e af3d 6565 d63d e254 923c 6736 a1bd
000002c0: ab82 eb3d a7f6 2b3d 73e1 4abd 15f4 3ebe
000002d0: 35c7 01bd 3305 173e 6276 5b3d e966 f23d
000002e0: 66fa 48bd f64b 353e 07c9 94bd a44d 9abd
000002f0: 63b2 0ebd a7fd 29bd c9db 723c 63a1 41be
00000300: ddad 8abc 7f76 f0bd 49e2 193d 34e9 d6bd
00000310: e353 883d d844 103e d127 f5bd 78ed 8dbd
00000320: d521 8e3a fd81 15be dbd4 083e b03d dbbd
00000330: 97b6 563e 9819 aabc e4f0 bf3d 23ac 183e
00000340: 3b1a 00be 8f9d babd e269 c73d 050f 9abd
00000350: 52d1 97be 71b8 f9bd b235 3dbd 322f 0bbe
00000360: 793c bd3d dc25 cdbd bd7d f03d 5a3d 7abd
00000370: a654 02be 1f62 aabd 9624 763b a4c3 5d3c
00000380: 1a42 2cbd 6cf0 eebd 598b 3bbe b471 083d
00000390: 3090 513e 5d84 63bb 3e52 bb3d 5d2b d53d
000003a0: e33a 23bc 69cf 4b3c 646c 283d b9aa c1ba
000003b0: 8d16 bb3d 29a9 10bd ac8a 0b3e dcf3 aa3d
000003c0: 8014 7b3c 43ad 273d 967e f0bd ecb0 2fbe
000003d0: 5f22 80be 8be0 c3bc e3b4 d7bd 802d 1c3d
000003e0: 5133 3fbd de22 dcbd 6b74 fcbd b77f ee3c
000003f0: e4fc 97bc 26e0 4e3d d571 c1bc 22b1 543e
-0.06988896 -0.12951659 0.20503761 -0.055385567 -0.08072524 0.061255068 0.1882307 -0.04768122
0.0052867704 0.20146199 0.1105143 0.076405816 -0.107424684 -0.28706762 -0.14794157 -0.106406756
-0.082347766 -0.011329895 -0.17273785 -0.0085914405 0.05874807 -0.07436878 0.024172671 -0.124780744
-0.025146345 0.040432625 0.22148706 0.07320266 0.019638345 -0.07029607 -0.0037465366 -0.09576584
0.0835291 0.041564167 0.15744714 -0.035862844 0.099681854 0.04845543 0.1487082 -0.013087854
0.17401144 -0.06505504 0.20510846 0.0052202917 -0.029258762 -0.021524549 0.036762226 0.15219635
0.01029985 0.1319367 0.120901875 -0.15949135 -0.1110336 0.05146085 -0.02285889 -0.035755116
0.11731684 0.021156296 -0.29561737 0.066750936 0.061800458 -0.034356225 0.100052856 -0.014588429
-0.043981202 -0.13948683 0.027602455 -0.0153126065 0.19123708 0.23943718 0.22410426 0.048416033
0.011459159 0.21240836 -0.0030275933 0.18597844 -0.020011911 0.0538081 -0.16306339 0.016361453
-0.15681471 0.0015058849 -0.0070670173 0.10944489 0.13687457 0.10668436 -0.12869008 0.20323084
0.0069602495 -0.046721183 0.07177947 -0.013881109 0.023906445 0.13378677 0.08602285 0.12571056
-0.039936848 0.16081001 -0.112501934 -0.117752686 -0.17184442 0.09747264 0.04152954 0.0123591535
0.06514937 0.045734406 0.0054028938 -0.02270911 -0.035131764 0.0024314746 -0.13614428 -0.12848274
0.06672822 0.074050695 -0.0103182355 -0.057211637 -0.02371472 0.059770264 -0.05863201 -0.032755002
0.031786993 -0.019422563 -0.17773297 0.13257329 -0.16402972 0.112726636 -0.052841004 0.08178463
0.052578263 -0.14409372 -0.025039947 0.07659708 -0.03907586 -0.033052493 -0.17292409 0.14665572
-0.10168695 0.1874419 -0.13113332 0.06993515 0.045468654 -0.08005141 -0.1193292 -0.058273476
-0.23765816 -0.049686324 -0.13331282 -0.08161912 0.046756893 -0.1387542 0.12647493 0.24064581
0.15157045 0.117182255 0.04870701 -0.15471326 0.13731624 0.046868645 0.0779237 0.038944557
0.20013969 0.039019298 0.28725678 0.07304624 0.09161573 -0.027865207 0.15426296 -0.033102684
-0.14339788 0.072207645 0.1542517 0.07307501 0.08569016 0.10468558 0.01786274 -0.078717045
0.11499532 0.041983273 -0.04953141 -0.18647797 -0.03168412 0.14748077 0.053579696 0.11836035
-0.049066924 0.17704758 -0.072649054 -0.0753434 -0.03483809 -0.041501667 0.014822909 -0.1890922
-0.016928608 -0.11741351 0.037569318 -0.10493699 0.06656625 0.14088762 -0.11970485 -0.06930059
0.0010843823 -0.14600368 0.13362448 -0.10705125 0.2096809 -0.020764157 0.09372118 0.14909415
-0.12510006 -0.09112083 0.097369924 -0.07522396 -0.29651886 -0.121933825 -0.046193786 -0.13592222
0.0924005 -0.10016987 0.11742733 -0.061093666 -0.12727603 -0.08319496 0.0037558428 0.013535414
-0.042055227 -0.116669506 -0.18314876 0.03331156 0.2046516 -0.0034716346 0.09146546 0.104086615
-0.00996277 0.012439587 0.041118994 -0.0014775611 0.091351606 -0.035317574 0.13627118 0.08347294
0.015324712 0.04093672 -0.11742894 -0.17157334 -0.25026223 -0.023910781 -0.10532548 0.03812933
-0.0466798 -0.10748838 -0.123268925 0.029113634 -0.018553205 0.050506733 -0.02361385 0.20770696

encoder.rnn.weight_hh_l0 f4 [192, 64]
00000000: 98f2 9fbd f501 debd 6866 8bbb 97a3 503d
00000010: f677 56be d637 4b3e 8282 d63c d874 44bd
00000020: 2016 29be fcf0 193e e507 a43d bdd1 55bd
00000030: 3729 56be 055b 7c3d 7425 87be 9f44 ccbd
00000040: 890c 233e 5820 c6bd 0e36 0c3e cae8 473d
00000050: a3a5 acbc c048 debd 4f76 d13c edb2 90bc
00000060: ca90 9c3d 5c7d 173c e853 15be 190c dbbd
00000070: 5fce 293e c924 52bd da38 423c c040 7cbd
00000080: 8f51 313c ef2c 8a3e f335 b0bd 6daa a33d
00000090: 4120 193d 18bf 18bd 9e49 ff3c 843b 11bd
000000a0: 96c0 363d 9845 08be 3950 94bd 8e8e a2bd
000000b0: 9a92 0c3e 56ac f9bd acf3 6f3d 540d 23bd
000000c0: d4d4 17be 287a 27bd 696e ecbd 01c1 8cbd
000000d0: afb3 9ebd 9d1e 513d 3730 92bd fae0 3ebe
000000e0: 1cd2 413e 3060 d23c 9232 f2bd cb18 8a3d
000000f0: f782 c13d a9f2 e03c c9ba 0a3b 91ba 82bc
00000100: 606d bb3c cde3 0e3e 6a64 0e3e ccc0 023e
00000110: 8c0f 07be 9326 dbbd 6954 0ebe 82b1 34bd
00000120: 4518 dd3d 3364 cebd 8c46 a4bb 1a30 a6bd
00000130: 7697 803d d0b7 c7bc 0291 b6bd 9d80 e5ba
00000140: cfa2 adbc 6bfc 8c3d 0a55 04be 2564 f03d
00000150: 4edd 063e 9170 2b3c e94a 7d3d 644d bcbc
00000160: 2f0b d2bc 3018 d4bc 29fc b9bd 889d 3f3d
00000170: 56fc 02bc fcfe 05be 154b a23a 8532 343e
00000180: 23ee 253d eedb 4c3d 4181 b93d 9b43 15be
00000190: 2b00 70be 43a0 a6bd 122b 053e 905e d3bd
000001a0: 98c7 00be c578 e03d 0f9c 84bc 801a b5bd
000001b0: 5f4d 43bd 4827 43bd f728 bfbc ddec 033e
000001c0: dc1f e33c 2304 1ebd 1454 75be 67af 08be
000001d0: 7803 e8bc 762f 15bd 3069 38be 0b6a ca3c
000001e0: 0089 ba3b 3daa 963d 0c8b ffbd 7045 073d
000001f0: 4a59 073e 4cbf 7bbe dc72 113d 7e94 7dbc
00000200: 8e48 2d3e 59e2 473d 0389 afbc 1fe8 9e3c
00000210: 5926 86bd 8574 db3d b894 743d 3637 23be
00000220: 04f4 973d 794a e53d 963f 913d 6fa2 ec3d
00000230: ea02 88be 2a26 84bc 1786 11bd 148b 4c3d
00000240: bfda 7abd 895d be3d d923 343e 16ed cbbd
00000250: c004 db3d 7762 41bd abbe a7bd 2158 e43d
00000260: aff9 ca3d 209d d4bd 0fc9 91be be4a 4f3c
00000270: f18a 613e e6b8 a13c 4033 e6bd 15a4 b5bd
00000280: f09f f73c 4295 ac3d 7d35 f83d c554 9a3d
00000290: 578f 863d cdcf 1a3e 51fb a8bd cb04 3c3d
000002a0: 1edc 03bd 4765 923d 3da5 583e cc2d 133e
000002b0: 56d7 eabd c95d 28bc 15e9 9e3d bd10 04bd
000002c0: 4d9b bf3d 438d c43d e0ef 903b bd16 05bd
000002d0: 1acb 8a3c d5a2 7abe 1cac 27be c58a 173e
000002e0: 0b84 083e d258 0b3d 879a c1bd bdf5 dcbd
000002f0: c18b bbbd d983 5e3d 57e3 22bd 805f 953d
00000300: adc1 253c 14dd 323e 79c9 87bd f830 d23d
00000310: 5048 8bbd aaee 9cbd fa43 193d 3c67 cbbc
00000320: caf4 d4bb 116e b03d 5485 073e 2009 e93b
00000330: bf6b 833d e995 aebc cf97 5a3d ec1c 593c
00000340: 9d06 ebbd 615b c33d 1b05 8a3d cb2e a2bd
00000350: 320c eabc 8aac 5abd c186 e6bd 6c29 033c
00000360: 0d49 da3d 73b2 21be 132f 183e 4d6f 69bd
00000370: dd41 483c 31c4 613c 921a 043d 0955 173e
00000380: b72c 823d f9dc c8bd ac85 93bd 714e 933d
00000390: 586c 333d 7a36 65bd f88d ac3d abc6 d23d
000003a0: 1af4 14be 2e57 62bd 535d ec3d 7b75 38bc
000003b0: f69b a63c 6f49 3ebc a413 4abe c7ec 683e
000003c0: 5580 553e 7267 333d 3902 03be fea4 81bd
000003d0: 2672 78bc 880d 303d ea88 21bd ce32 2c3d
000003e0: e439 29be c49e 99bc 88e7 49bd ed2c 083d
000003f0: abf8 e0bd 63f9 63bc a241 a6bb 050d fd3d
-0.07809943 -0.10840217 -0.004254151 0.05093726 -0.20944199 0.19845518 0.026185278 -0.047962993
-0.16512346 0.15033334 0.08009318 -0.052201975 -0.2091416 0.06161024 -0.26395762 -0.09974026
0.1592275 -0.09674138 0.13692495 0.04880599 -0.021075075 -0.1085372 0.02556911 -0.017663443
0.07644804 0.009246197 -0.14582789 -0.10695667 0.1658263 -0.051304612 0.011854375 -0.061585188
0.010822668 0.26987407 -0.0860404 0.079914905 0.037384275 -0.037291616 0.031163033 -0.03545715
0.044617258 -0.13307798 -0.07241864 -0.079373464 0.13727799 -0.121910736 0.058581993 -0.039807633
-0.14827281 -0.04088798 -0.115444966 -0.0687275 -0.07749116 0.051054586 -0.071381025 -0.18640509
0.18927807 0.025680631 -0.11826052 0.0674301 0.09448808 0.02745946 0.0021168462 -0.015958102
0.022879303 0.13954087 0.13905492 0.12768859 -0.13189524 -0.10700717 -0.13899387 -0.044114597
0.10795645 -0.10077705 -0.0050132927 -0.081146434 0.06278889 -0.02437964 -0.08914377 -0.0017509643
-0.021195797 0.068840824 -0.12923065 0.11737851 0.13170359 0.01046385 0.061839018 -0.022986121
-0.025640098 -0.02589044 -0.09081299 0.046781093 -0.007994732 -0.1308555 0.0012381995 0.17597397
0.040510308 0.05001443 0.09057856 -0.1457657 -0.23437564 -0.08136036 0.13004711 -0.10320771
-0.12576139 0.10960535 -0.016187696 -0.08842945 -0.04768121 -0.047644883 -0.023334963 0.12883325
0.027725153 -0.038578164 -0.23957855 -0.1334816 -0.028321967 -0.036422215 -0.18008876 0.024708768
0.005692601 0.07356689 -0.12477693 0.033025205 0.13217655 -0.24584693 0.03550993 -0.015477298
0.16922209 0.048799846 -0.021427637 0.019397793 -0.06550283 0.10715584 0.05971214 -0.1593903
0.07419589 0.11195845 0.07092206 0.11554419 -0.26564723 -0.01613148 -0.03552827 0.049937323
-0.06124377 0.09295184 0.175918 -0.0995733 0.10694265 -0.047213044 -0.08190664 0.11149622
0.099109046 -0.10381532 -0.28473708 0.012652097 0.22025658 0.019741487 -0.11240244 -0.08869187
0.030227631 0.08426906 0.12119577 0.075357 0.06570309 0.15118332 -0.0825106 0.04590301
-0.032192342 0.07148223 0.21156783 0.14372939 -0.11466853 -0.010276266 0.077593006 -0.032242525
0.09355793 0.09597256 0.0044231266 -0.032492388 0.01694255 -0.24476178 -0.16374248 0.1479903
0.1333162 0.034020253 -0.09453302 -0.10789058 -0.09157515 0.05432496 -0.03976759 0.07293606
0.010116977 0.17467147 -0.06630225 0.10263246 -0.06800902 -0.07662709 0.037418343 -0.0248295
-0.0064989077 0.086147435 0.13234454 0.0071116835 0.06417035 -0.021311717 0.053367432 0.013251524
-0.11475871 0.095389135 0.06739255 -0.07919081 -0.028570268 -0.053387202 -0.11256171 0.008005481
0.106584646 -0.15790729 0.14861707 -0.05699091 0.012222734 0.013779686 0.032251902 0.14778532
0.06356185 -0.09807772 -0.0720323 0.07192696 0.043804497 -0.055960156 0.08425516 0.10291799
-0.14546242 -0.055258922 0.11541238 -0.011258478 0.02033804 -0.011614188 -0.19734055 0.22746573
0.20849736 0.043799825 -0.12793817 -0.06330298 -0.015163934 0.042981654 -0.039437212 0.04204064
-0.1652599 -0.018752463 -0.04929307 0.03324597 -0.1098493 -0.013914439 -0.005073742 0.12355999

encoder.rnn.bias_ih_l0 f4 [192]
00000000: 0a3a 7d3c eab7 0d3d d3cd 37bd bc5d 143d
00000010: 3255 d8ba 1525 bb3a b6fe c53c 8cf4 17bd
00000020: bd79 99bc a76d 1cbd f367 4d3d a103 c5bc
00000030: 8ad4 05bc bdea 21bc c5b4 6cbc 9620 823c
00000040: 793d 8d3c 722e e3bc 7cff bdbc c2f1 5ebb
00000050: f8f8 393d 1d48 dabc 5322 2ebd 2dc8 163d
00000060: 78b8 233c e1e7 fbbc 1905 e33c 6dc9 a03b
00000070: c1e0 75bb 3a87 053d 026f 7e3a 96ed 373b
00000080: 3e5e 8a3c b913 adbb ec52 d938 c6c9 82bc
00000090: cbac e13c 8e87 f7bc 4f59 ea38 3a9a 12ba
000000a0: 455b 32bb e977 80bc 7398 4e3a c91d e5bc
000000b0: 60c6 dc3c a9f9 3cbd dbfb 633d bce1 013d
000000c0: 6d49 cdbc d910 5fba b847 ba3b 22fc e1bb
000000d0: a640 573d 8c88 52bd 4185 3e3c 88e9 363c
000000e0: 7b8b 05bd 6c33 0fbb db2a 223c 6199 073d
000000f0: 670e cc3b 58d9 783d 1571 173b b4ad c03c
00000100: 7f25 36ba 71b3 473d 4fdc 07be ac43 f63c
00000110: 262c a8bd a1d5 d83d 4a40 113d f456 fdbd
00000120: d5bd 17bd 4d10 66bd 2e64 1dbd cf02 8abd
00000130: c29d 5e3c b51b 883c b46b c9bc 1fee 613d
00000140: b01e 1ebd 5521 f2bd 2804 803d a8f1 09bb
00000150: 7b9e 0f3d 6512 f6bd 9daf b5bd d791 27bc
00000160: 29cc 62bc a960 c9bb f0b0 8ebc 817a 813b
00000170: 5950 6bbd 05e2 063d ca6e d1bc e741 11bc
00000180: 989f 84ba f495 923c 8bfd 8dbd 7ce6 07bc
00000190: 0714 a73c 0b4e 0abc 3a5d 943c 3deb 943c
000001a0: 498b 82bc e01c 46bc 9974 f7bd 57c9 c6bd
000001b0: d56c f03b 99d0 2e3d 5882 b7bd ad44 8d3d
000001c0: e516 74bd 652d 3f3b d0a1 453c 70e1 2fbd
000001d0: b791 28bd cead dfbd 929b 2a3d 95f0 97bb
000001e0: cbb4 0ebe 884f cb3d e73d f43a 6c56 873b
000001f0: d4da 02bc a475 b13c 5e47 163d dfe8 5f3c
00000200: b4c3 6c3d ce95 e73c 8a73 9ebc e46f c53c
00000210: a5b6 adbb 6ef1 1a3d 9a56 d63c 7011 f7bb
00000220: 2189 54bc 4eaf 993c 6211 10bd a892 e43a
00000230: b6b8 8bbb 2c5f 21bb 0885 1b3c 9c85 ae3a
00000240: 1f58 7d3c ce31 63bc cb98 74b9 ec3b d23b
00000250: 71e7 f0bc a30f 8a3c d076 6a3c b776 8d3a
00000260: 97ef 3fbc 2aa1 2c3c 0137 bebc f177 c2bc
00000270: a18a a1ba fa0a 1cbd 2156 7d3b 399a 1abc
00000280: 3629 a2bc 597f 523c 1b92 47bc 7282 393c
00000290: cc93 1f3d e001 a1bc 3bf6 83bb d25b 723c
000002a0: c846 e53b 49f5 8f3c de67 c73b 4beb 6c3c
000002b0: 9621 073d e804 973b 37fc e23c a250 1c3d
000002c0: 2ad8 75bc aa71 3b3a 2479 1ebc 8359 90bb
000002d0: e1db dd3c c645 17bc 2bad 523c e767 bcbc
000002e0: 0d09 b23c b9a6 573c 65c7 2cbc 257b 3cbd
000002f0: 1464 85bb 91d8 a03c 57ea a4bb 30ac ea3c
0.015455732 0.034599222 -0.044874024 0.036222205 -0.0016504882 0.0014278019 0.024169307 -0.037098452
-0.018734807 -0.03819051 0.05014796 -0.024049582 -0.008168349 -0.009882626 -0.014447396 0.015884679
0.017241227 -0.027732108 -0.023193114 -0.003401861 0.04540345 -0.026645714 -0.042513203 0.036811996
0.009992711 -0.030750217 0.027712392 0.0049068243 -0.0037517997 0.032599665 0.00097058725 0.0028065196
0.016890641 -0.005281892 0.00010362812 -0.015965354 0.027548214 -0.030216005 0.000111746245 -0.00055924396
-0.0027215045 -0.015682178 0.0007880993 -0.027968304 0.026950061 -0.046136532 0.05566011 0.031709418
-0.025059426 -0.00085092854 0.005684819 -0.0068965117 0.052551888 -0.051399752 0.01162845 0.011164077
-0.032603722 -0.0021850718 0.009897913 0.033105258 0.006227303 0.06075415 0.0023108174 0.023520328
-0.00069483364 0.048755113 -0.13267635 0.030061565 -0.08211546 0.105876215 0.0354617 -0.123701006
-0.037046272 -0.05616789 -0.038425617 -0.06738817 0.013587417 0.016614774 -0.02458749 0.05515873
-0.038603485 -0.11822764 0.06250793 -0.002104858 0.035063248 -0.12015227 -0.08871386 -0.010227642
-0.013842621 -0.006145556 -0.017418355 0.003951371 -0.057449672 0.032930393 -0.025565524 -0.00886581
-0.0010118363 0.017893769 -0.06933125 -0.008294698 0.020395292 -0.008441458 0.01811086 0.018178577
-0.015935557 -0.012091845 -0.12082786 -0.09706371 0.0073371925 0.042679403 -0.08960408 0.068978645
-0.059592146 0.0029171344 0.012062505 -0.042939603 -0.04115459 -0.109218225 0.04165227 -0.004636834
-0.13936155 0.09927279 0.0018634171 0.0041301753 -0.007986743 0.02166254 0.036689155 0.013666361
0.057803825 0.028269675 -0.019342203 0.024101205 -0.005301314 0.0378279 0.026164342 -0.0075399205
-0.012972147 0.01876035 -0.035172828 0.0017438726 -0.0042639626 -0.0024623377 0.009492166 0.0013314965
0.015462904 -0.013866855 -0.00023326573 0.0064158347 -0.029407235 0.01685316 0.014310554 0.0010792826
-0.0117148375 0.010536471 -0.023219587 -0.023738833 -0.001232464 -0.038096406 0.0038656073 -0.009436184
-0.019795042 0.012847745 -0.01218083 0.0113226045 0.03895931 -0.019654214 -0.0040271557 0.0147923995
0.006996963 0.017573016 0.00608538 0.014460395 0.032991014 0.004608739 0.027708156 0.038162835
-0.015005151 0.0007150421 -0.009672437 -0.004405202 0.027082385 -0.009232944 0.012858669 -0.022998763
0.021732831 0.013162308 -0.010545586 -0.046015877 -0.004070768 0.019634517 -0.0050328183 0.028646559

encoder.rnn.bias_hh_l0 f4 [192]
00000000: 063a 7d3c e8b7 0d3d d2cd 37bd bb5d 143d
00000010: 1a55 d8ba 3425 bb3a b5fe c53c 8ff4 17bd
00000020: bb79 99bc a76d 1cbd f267 4d3d a403 c5bc
00000030: 8bd4 05bc bfea 21bc c3b4 6cbc 9e20 823c
00000040: 7d3d 8d3c 702e e3bc 7bff bdbc c3f1 5ebb
00000050: f7f8 393d 2048 dabc 4f22 2ebd 2dc8 163d
00000060: 79b8 233c e5e7 fbbc 1b05 e33c 64c9 a03b
00000070: b2e0 75bb 3a87 053d d16e 7e3a 72ed 373b
00000080: 3f5e 8a3c bb13 adbb 1251 d938 c6c9 82bc
00000090: caac e13c 9087 f7bc b859 ea38 1b9a 12ba
000000a0: 505b 32bb e877 80bc db97 4e3a ca1d e5bc
000000b0: 63c6 dc3c acf9 3cbd ddfb 633d bce1 013d
000000c0: 6c49 cdbc d410 5fba b747 ba3b 19fc e1bb
000000d0: a540 573d 8d88 52bd 4085 3e3c 8ae9 363c
000000e0: 778b 05bd 6033 0fbb d92a 223c 6399 073d
000000f0: 5a0e cc3b 58d9 783d fc70 173b b3ad c03c
00000100: b224 36ba 72b3 473d 4fdc 07be a243 f63c
00000110: 252c a8bd 9ed5 d83d 4b40 113d f756 fdbd
00000120: d7bd 17bd 4b10 66bd 2d64 1dbd cd02 8abd
00000130: c89d 5e3c b41b 883c b26b c9bc 20ee 613d
00000140: b21e 1ebd 5421 f2bd 2804 803d b0f1 09bb
00000150: 7f9e 0f3d 6312 f6bd 9caf b5bd d891 27bc
00000160: 29cc 62bc 9a60 c9bb efb0 8ebc 717a 813b
00000170: 5950 6bbd 05e2 063d cc6e d1bc e341 11bc
00000180: 709f 84ba f695 923c 8afd 8dbd 80e6 07bc
00000190: 0d14 a73c 074e 0abc 3c5d 943c 3deb 943c
000001a0: 448b 82bc d91c 46bc 9c74 f7bd 58c9 c6bd
000001b0: da6c f03b 96d0 2e3d 5982 b7bd ab44 8d3d
000001c0: e516 74bd 6e2d 3f3b c5a1 453c 72e1 2fbd
000001d0: b591 28bd cfad dfbd 939b 2a3d 91f0 97bb
000001e0: cab4 0ebe 8a4f cb3d 023e f43a 7856 873b
000001f0: d4da 02bc 9b75 b13c 5c47 163d e2e8 5f3c
00000200: 2e06 7b3d bac9 e33c 08f0 45bc defb a83c
00000210: ebae 01bc 1b0a 303d 0821 c83c 2fac 9fbb
00000220: 70f0 08bc 2496 6a3c 33b7 1dbd 552b 93bc
00000230: fa9d 99bb 3994 c23a 1b50 2f3c aed8 a83b
00000240: d99b 9e3c 6d75 01bc 757e a1ba cae7 8d3c
00000250: 62e5 24bd b041 7c3c 5ed4 573c 6ee3 73bb
00000260: d501 2bbc 0fc1 243c 24c0 c1bc fec3 8bbc
00000270: bea7 0e3c 8dc7 17bd d9d0 633b 86b3 e5bb
00000280: f730 98bc f6f3 4f3c 5a4a 37bc 9516 e23b
00000290: cb21 203d b929 98bc 66e4 54ba 73d4 093c
000002a0: 2bd9 c03b 318f a43c cb62 833c 0307 633c
000002b0: c37c 313d 4e9d cf3b 86fd b73c 7401 113d
000002c0: 3d1d 6dbc cb68 333a 486c 56bb 7e51 38bb
000002d0: 9513 003d a64a 11bc a048 253c 1248 aabc
000002e0: c295 b43c f0e5 213c aa23 9dbc 595b 8fbd
000002f0: cdc0 65bc 9c4b 963c 2352 94bb 7cbe ea3c
0.015455728 0.034599215 -0.04487402 0.0362222 -0.0016504854 0.0014278055 0.024169305 -0.037098464
-0.018734803 -0.03819051 0.050147958 -0.024049588 -0.00816835 -0.009882628 -0.014447394 0.015884694
0.017241234 -0.027732104 -0.023193112 -0.0034018613 0.045403447 -0.02664572 -0.042513188 0.036811996
0.009992712 -0.030750224 0.027712395 0.00490682 -0.0037517962 0.032599665 0.0009705844 0.0028065112
0.016890643 -0.005281893 0.00010362467 -0.015965354 0.027548213 -0.030216008 0.00011174701 -0.00055924215
-0.002721507 -0.015682176 0.00078809046 -0.027968306 0.026950067 -0.046136543 0.055660117 0.031709418
-0.025059424 -0.00085092825 0.0056848186 -0.0068965075 0.052551884 -0.051399756 0.011628449 0.0111640785
-0.032603707 -0.002185069 0.009897911 0.033105265 0.006227297 0.06075415 0.0023108115 0.023520326
-0.0006948217 0.048755117 -0.13267635 0.030061547 -0.08211545 0.10587619 0.035461705 -0.12370103
-0.03704628 -0.056167882 -0.038425613 -0.067388155 0.013587423 0.016614772 -0.024587486 0.055158734
-0.038603492 -0.11822763 0.06250793 -0.0021048598 0.035063263 -0.12015226 -0.088713855 -0.010227643
-0.013842621 -0.006145549 -0.017418353 0.0039513637 -0.057449672 0.032930393 -0.025565527 -0.008865806
-0.0010118317 0.017893773 -0.06933124 -0.008294702 0.020395303 -0.008441455 0.018110864 0.018178577
-0.015935548 -0.012091839 -0.12082788 -0.09706372 0.007337195 0.04267939 -0.08960409 0.06897863
-0.059592146 0.0029171365 0.012062495 -0.04293961 -0.041154582 -0.10921823 0.041652273 -0.004636832
-0.13936153 0.0992728 0.0018634202 0.004130181 -0.007986743 0.021662524 0.036689147 0.013666363
0.06128519 0.027806152 -0.012081154 0.020627912 -0.007915239 0.042978387 0.024429813 -0.004872821
-0.008358106 0.014318023 -0.03850479 -0.017964998 -0.0046880217 0.0014845199 0.010700251 0.0051527834
0.019361423 -0.007901532 -0.0012321012 0.01732244 -0.04025782 0.0153965205 0.013173191 -0.0037214416
-0.0104374485 0.010055794 -0.02365119 -0.01706123 0.008706985 -0.03705554 0.0034761934 -0.0070099263
-0.018578036 0.012692442 -0.01118716 0.0068996646 0.039094727 -0.018574582 -0.0008121192 0.008412468
0.0058852634 0.02008781 0.01603832 0.013856652 0.043331873 0.006335891 0.022459757 0.035401776
-0.014472303 0.00068439235 -0.003271835 -0.0028124745 0.031268675 -0.008867895 0.010088116 -0.020786319
0.022044066 0.0098814815 -0.019182045 -0.06999845 -0.014023018 0.0183466 -0.004526393 0.028655283

encoder.fc.weight f4 [32, 64]
00000000: 57f5 fdbc cec4 c03b 6619 49be 815a 4abc
00000010: 656f 42bc e141 9dbd c931 013e a3cd a1bb
00000020: 3a5f 06be a4da 5fbc 37f0 10be 653d 6bbd
00000030: c5bb 003c bcad c73d fb56 0b3e e6c7 fb3d
00000040: 1c1e 8a3c e245 c33d 3736 fcbc 0efb ecbd
00000050: b114 8f3d 8996 0b3e 6ee0 153c dfcb 763c
00000060: 4a9d 343e 676e b3bd 0368 e2bc ef00 9f3c
00000070: 8bfb ae3d d77b 1fbd 6385 60bd 4e4f 0abd
00000080: dff7 d1bd 1e4f 63bd 9409 233e bc8b 94bd
00000090: fc6f cf3d ba54 743a 6956 9cbd b7aa 873d
000000a0: b04a 84bd 19e6 103e 4c4f 5a3e 3a91 6c3e
000000b0: bd74 203d 5359 cebc 70dc d13b 0fc6 fabd
000000c0: 9d51 1dbe 44d0 7dbc 5dca b1bd baf8 403d
000000d0: 47c3 14bd 40d0 52be 516c 95bc e197 00be
000000e0: de83 873e 4254 2bbd 0ee7 1a3d 6ee5 b3bd
000000f0: 66aa 3abe 1d59 a83d c7a7 093e a474 94bd
00000100: f22a 633d 88d8 9bbd 5214 213e f546 853d
00000110: bcaa 573d 5647 7cbc 3952 7bbd fcb5 633d
00000120: 2079 ed3c cbc7 063e 9181 373b 55f4 cb3d
00000130: 6914 c03d b5f4 053c 75a7 03bc 08cf d63d
00000140: 8dd9 543e e4ab d9bd 2212 17be 324e 3b3d
00000150: 94e8 61bd 945c 47bd 56d9 223d 6525 34bd
00000160: 6347 2e3c 8815 25bc 3914 b93c d332 ad3c
00000170: 4977 3abd b685 0dbd 81f5 963d c5b1 043e
00000180: 70d4 523d 540b 6d3d e6cd 053e 764b 54bc
00000190: 1402 bb3c 20c1 513d 2c56 18be b615 5cbd
000001a0: 4b38 f53d 1925 afbd 9f3a babb d519 8d3d
000001b0: dca0 62bd 37ea 023c 6bba 89bd 68b3 a9bd
000001c0: 0134 90bd 401a d93c 4967 d3bd 1338 0dbe
000001d0: df08 0f3d 6a62 993d f77e 813d f2c5 8f3e
000001e0: 9ac1 e4bc fd90 2fbe 008b 3dbe 5d3e 963d
000001f0: d134 ea3c 5cd5 d83b 0f76 cebd f7c8 2ab9
00000200: 6c19 f5bd 2eae 9bbc 9f6b 24be b97e 963e
00000210: 585c edbc a102 803d 3f7f f8bd 605f 5fbe
00000220: a6a3 003e 488f 453d 2213 d43d 9fb9 4ebe
00000230: d40e edbc 94b6 dabd 4233 793d 276d 303d
00000240: 58ad 0e3e f5a1 16bd a5d7 943d 61e9 70bc
00000250: d381 713d a46c dc3d d6f0 40bc 015a 2d3d
00000260: aaae ebbc 115e 2a3e 0272 b53d 20c5 433c
00000270: 3eb7 983d 4a04 2f3e 2338 213e 6b12 863e
00000280: 12fe 37bd 5b2f e9bd 6cfe b13d 63ea 32be
00000290: b81e 623d 522e a5bd 9f3f 8a3d e9b4 053d
000002a0: 4472 b0bd 5d4b 10bd 911a 173e 94e5 32be
000002b0: 27cf 04bc f33c 843d eac8 6fbd 90c2 f7bc
000002c0: d7b3 093e 507e 87bc bcc0 a7bd e7d4 26bc
000002d0: b28d 803e 1416 6bbb d9ec 42bd d23e a63b
000002e0: d151 853e f458 15be 572b dbbd b20a f7bc
000002f0: 2707 8dbd ece9 a1bd b2a2 06bd 5a95 c43c
00000300: 9e4b 113d 3895 ce3d 1cda 6c3e bf4c 12bc
00000310: 00df 42bd 36a8 eabd 32ca 763d d767 c43e
00000320: 4a1a d33d 87c6 2bbc 1d4a 42be 6995 bdbc
00000330: e8ee 1b3e 90d5 ff3c fdcc 863c ab52 ea3c
00000340: fb54 f0bc c816 b6bd ae14 c7bc 52e9 a2bb
00000350: a96e e1bc c035 10bd baaa 4c3c 21f8 2fbd
00000360: 91e0 aabd a188 d2bd 36f5 f2bd 789b 1cbe
00000370: c1e1 43bd 4265 45bd d758 adbc 47c4 c7bc
00000380: 9a45 473d eed5 783c c45f 04be 0766 3abd
00000390: 0cd3 153d 6233 a3bd a541 3fbd 7035 9c3c
000003a0: 0292 5bbb 33d5 9fbd 63e5 6abe 821c 22bd
000003b0: 4b0f f5bd 0b7c 1fbe cf1b 88bd 2914 263d
000003c0: fac7 d83d e44f 0e3e 0520 853b 5015 10bd
000003d0: ae0e 9cbd 9615 0dbc ee51 04be e7b7 d53d
000003e0: b180 39bc e584 6a3d cee9 31be 7e31 433e
000003f0: 1ae5 41bc e105 913d 79da a13d 699a 483d
-0.031000776 0.005882836 -0.19638595 -0.012350679 -0.011867379 -0.07678581 0.12616648 -0.004937844
-0.13122264 -0.013662968 -0.14154135 -0.057431597 0.007857268 0.09749934 0.13607399 0.12293987
0.01686006 0.095348135 -0.03078757 -0.115713224 0.069863684 0.13631643 0.0091477465 0.015063255
0.17638126 -0.08761292 -0.027637487 0.019409625 0.08544072 -0.038936462 -0.054814707 -0.033767037
-0.10252356 -0.055495374 0.15921623 -0.07253215 0.10128781 0.00093204866 -0.07633669 0.06624358
-0.06459558 0.14150275 0.21319312 0.23102275 0.03917383 -0.025189077 0.006404452 -0.12244808
-0.15363164 -0.015491549 -0.08681176 0.047112204 -0.036319043 -0.20587254 -0.018240126 -0.12557937
0.26467794 -0.0418284 0.037818007 -0.087839946 -0.18229064 0.08220122 0.13442908 -0.0724881
0.055460878 -0.076096594 0.15730408 0.065076746 0.05265306 -0.015397867 -0.06135771 0.055593476
0.028988421 0.13162152 0.0028000812 0.09958712 0.09378893 0.0081760185 -0.00803553 0.10488707
0.20786114 -0.10628489 -0.14753011 0.04572887 -0.055153444 -0.048672274 0.03975805 -0.043980975
0.010637137 -0.010075934 0.02259265 0.021142399 -0.045523915 -0.034551345 0.07371045 0.12958439
0.051472127 0.05787213 0.13066825 -0.012957444 0.02282814 0.05120957 -0.14876622 -0.053731643
0.11973628 -0.08551998 -0.0056832577 0.06889693 -0.05532919 0.0079904115 -0.067250095 -0.08286172
-0.07041169 0.026501775 -0.103224345 -0.13790922 0.03492057 0.07489474 0.06323045 0.28080708
-0.027924348 -0.17145152 -0.18510056 0.073361136 0.028589638 0.0066172313 -0.10081112 -0.00016287329
-0.119677395 -0.019003954 -0.16056679 0.29393557 -0.028974697 0.062505014 -0.12133645 -0.21813726
0.12562427 0.048232347 0.10355212 -0.20187996 -0.028937735 -0.10679355 0.0608399 0.043072846
0.13933313 -0.036775548 0.072676934 -0.014704079 0.0589617 0.10762909 -0.01177617 0.042322163
-0.02876981 0.16637446 0.08859636 0.011948854 0.07456826 0.1709148 0.1574407 0.26185927
-0.044920035 -0.113859855 0.08691105 -0.17472224 0.055205077 -0.080654755 0.06750416 0.032643232
-0.086155444 -0.035228122 0.14756228 -0.1747039 -0.00810603 0.06456938 -0.058541216 -0.030244142
0.1344751 -0.016539723 -0.08191058 -0.010182596 0.25108105 -0.0035871314 -0.047589157 0.0050734067
0.26038983 -0.14584714 -0.10701626 -0.030156467 -0.0688613 -0.07905945 -0.032870002 0.023996998
0.035472505 0.10087055 0.23130077 -0.0089294305 -0.04757595 -0.11457865 0.060251422 0.38360474
0.103077486 -0.010484344 -0.18973584 -0.023142533 0.15227854 0.031229764 0.016455168 0.028603872
-0.029337397 -0.08891064 -0.024301853 -0.0049716616 -0.027518587 -0.03520751 0.012491876 -0.042961244
-0.08343614 -0.10279966 -0.118631765 -0.15293682 -0.047822718 -0.04819227 -0.021160526 -0.024385585
0.04865036 0.015187724 -0.12927157 -0.045507457 0.036578223 -0.07968785 -0.046693463 0.01906845
-0.0033503775 -0.078043364 -0.22939067 -0.03957797 -0.119658075 -0.15574662 -0.06645929 0.04054657
0.105850175 0.13897663 0.004062655 -0.035176575 -0.076199874 -0.0086111035 -0.12921879 0.10435467
-0.011322186 0.057255644 -0.17374346 0.19061849 -0.011834407 0.070811994 0.079029985 0.048975382

encoder.fc.bias f4 [32]
00000000: 4430 e33b 854e 853b 89cc 963b bd68 cfba
00000010: c347 0dbc 156e 463a 14dd 1b3b 1941 503b
00000020: 0c5b 733c a9c5 223b 8823 1e3b 9036 02bc
00000030: ee99 2cbb efaa 883b e5bd 39bc 6918 05bc
00000040: 35b9 8a3c 7dd2 353c 7413 b33b c84b edbc
00000050: 1ac5 0bbb 1c3a 903b 607f e638 01a8 233c
00000060: 2880 b6bb ad16 fb3c 13a1 c73c 24a5 6f38
00000070: b96d a0bc 8b3f b53c a3a1 e03b ebfa bfbb
0.006933244 0.004068198 0.004602019 -0.0015824061 -0.008623066 0.0007569504 0.0023782896 0.0031777082
0.01485325 0.0024837053 0.0024130065 -0.007947579 -0.0026336866 0.0041707675 -0.011336778 -0.008123496
0.016934017 0.011097548 0.0054649655 -0.0289668 -0.0021327198 0.0044014584 0.0001099098 0.009988786
-0.0055694766 0.030650461 0.024368798 5.713584e-05 -0.01958357 0.022125026 0.006855206 -0.005858769

decoder.embedding_layer.embedding.weight f4 [100, 5]
00000000: b3e3 053e f981 eb3c 07e9 c63d 6ca0 34bc
00000010: ef4b 443d 5a2b 733e db02 d3bd f90b 503d
00000020: e575 5e3e 58a1 073e 079b 33be 036d 183a
00000030: 9533 c8bb a80c fabc 6b0a 9bbd 1fcf f83d
00000040: f3bc f6bc 4d68 1dbe 814f 9b3d 9fe2 88bd
00000050: d41d 42be 0f0c 4ebc a079 c1bd 525d 94b8
00000060: df2d 3fbe 9a95 92bd 83de fd3d 85ae 1dbe
00000070: e314 e03d 852b 4bbd 822d 083d ba68 dd3d
00000080: 723c 323e 9c1a d33c 0797 47be 2a78 6f3c
00000090: 30f7 b2bc 72d7 9fbc e2a9 a83e 885b 31be
000000a0: 86bd 4c3c a829 09bc 7640 11be b660 47bd
000000b0: dcd3 35be 495c 99be ad60 813c 9d98 c0bd
000000c0: fc4a a5bc fba0 05bd 250f 06be e91c a83d
000000d0: 9bc2 eabc 0714 c3bd c8df 9ebd 4e35 b13c
000000e0: 2782 a5ba 1ebe 06be 283c b43b 2adb 03be
000000f0: a423 ac3d 2850 143d 852b 0cbd 0a56 a93d
00000100: 6da8 f93b e706 ecbd eef2 5fbb b29e 67be
00000110: f9be 2a3e 0bd0 2ebc be21 15bd 0b03 29bc
00000120: 81cd 20bc 6b6a 5c3d 7b70 803d 78fc 43bd
00000130: f85b 9d3d 28f9 8d3d 06d0 753d b8b1 b13d
00000140: 1330 023b c8f1 9b3c 2492 d1bc 6d14 893c
00000150: c2b1 69be 4c91 d9bd d0b6 1b3e 8239 5a3c
00000160: 1d0a 493d 269d cfbd f47e fa3d c1b2 ce3d
00000170: 7835 3f3e c970 cb3d 54c4 2abd bfea 53be
00000180: 46ab 1a3e fe1b bdbd 18e3 3c3d b68f 793c
00000190: 4be3 1e3d 65b1 3c3d 618f dfbd 0c8a 003d
000001a0: 5b99 463d c23b b3bd 946f ab3c fd23 d23c
000001b0: bb4a 6cbd d7a9 0c3d edd6 623d fe99 9dbd
000001c0: 2829 703c d9f9 5b3e f0f9 e73b 21c0 283e
000001d0: 31e7 a93d c92b a8ba dd90 873d 4435 7c3d
000001e0: 1c26 fbbd c9aa 90bc 3b03 963d e88d 9f3d
000001f0: 365d 1f3d 83bb 64be 1274 933d c7b6 6abe
00000200: faf5 9e3d 82d4 1cbc f1a4 e4bd 95de 043d
00000210: 90de 5fbd eade 0b3e 3561 28be f69e 613d
00000220: 3a33 523e 02dc 8e3d 1a05 cf3d 8f91 0ebe
00000230: 0edc e0bc a11c e23d 5161 3e3e 01ab 243d
00000240: 7ec7 b2bd 6451 38bd e530 d03d b78c b43d
00000250: 261c 8e3d 7abf 11bd 1a0e b4bc efc1 02be
00000260: 01c9 84be 3203 0b3e 1499 94bd 6e4c f2bd
00000270: 8229 2e3e de76 bbbd 3296 60bc 1d28 053e
00000280: b101 473b 32d8 d2bd 03ae f93c 8512 0e3e
00000290: d737 40be a98b dcbd f138 8bbd f506 97bd
000002a0: ec37 193d 7e64 423d 58a2 b03d d154 423c
000002b0: 7fa9 ffbd 3f32 1c3e 5220 473e 1e58 94bc
000002c0: aed9 bb3d e1b5 97bb 4bb5 e53c 5dd9 563d
000002d0: 7c35 31be b12f 3d3d c802 d9bd 5dc2 8f3d
000002e0: 72da fbbd a344 9dbe 4cce d23d ef25 aebc
000002f0: 20f7 c73c 0262 99bc b58f b1bd 74f9 173e
00000300: 6f66 383e e0bd eebc 95d3 5cbe 3c68 b0bd
00000310: aa6a fabc 10b2 713a bb77 463d ed4d 90bd
00000320: 4be7 a83c 43b4 383b 2de2 803c 1980 133c
00000330: 8803 043c 12c0 173d 4d25 ba3d dad6 c5bc
00000340: 7922 e23c b7f2 f83d 8a69 b9bd 04e8 033d
00000350: a92d 433c b884 8bbd af22 9d3d aa9e c23b
00000360: 6490 b0bd 33c0 8bbd 4f1f acbd 716f 41bd
00000370: a30c 043e 8f97 4ebe 3bb4 01be 1468 f13d
00000380: 0a4d b23d a756 81bd f411 bdbc 24b4 86bd
00000390: 40a7 c43d 36ea ac3d cdcf 013c cbcc c43d
000003a0: 31c0 a63d ef4f ee3c a9e3 2cbd a251 303c
000003b0: 4624 8abe 46d8 fbbc 8d60 883e 6535 2cbd
000003c0: 67ee 46bd ab45 55bc ef8b cabd 4f6d 0b3e
000003d0: 5766 31bd 7e1b aabd a69f 0bbd 2023 64be
000003e0: b5f9 a83e ada2 0e3d 037d 143e 373d 0fbd
000003f0: 79ca 27bd 3d3e 3f3d 6aab bdbd 71a8 9fbd
0.13075142 0.0287485 0.09712415 -0.011024576 0.04792398 0.23747006 -0.10303279 0.050792668
0.2172466 0.13245142 -0.17539607 0.0005814584 -0.0061096647 -0.030523613 -0.075703464 0.1214888
-0.030119395 -0.15371819 0.075835235 -0.066838495 -0.18956691 -0.012576117 -0.09447026 -7.074572e-05
-0.18669842 -0.071574405 0.12395956 -0.15398605 0.10941484 -0.04960205 0.033246525 0.10810991
0.1740587 0.025769524 -0.19491206 0.014616052 -0.021846384 -0.019511912 0.3294211 -0.17320073
0.012496358 -0.008371748 -0.14184746 -0.048676215 -0.17756599 -0.2995322 0.015793169 -0.09404109
-0.020177357 -0.032624226 -0.13091715 0.08208639 -0.028657248 -0.09525304 -0.07757527 0.021631863
-0.0012627289 -0.13158461 0.0055003352 -0.12876573 0.084052354 0.036209255 -0.03422119 0.08268364
0.007618955 -0.11524754 -0.0034171897 -0.22619131 0.16674413 -0.0106697185 -0.036409132 -0.010315667
-0.009814621 0.053812426 0.06271454 -0.047848195 0.07683557 0.069322884 0.06001284 0.08676475
0.001986508 0.019036189 -0.02558238 0.016733373 -0.22821715 -0.10623416 0.15206456 0.013319375
0.04908191 -0.101373956 0.12231246 0.10092688 0.1867274 0.099336214 -0.04169114 -0.20695017
0.15104398 -0.09233855 0.04611501 0.015232017 0.038790982 0.046067614 -0.10916019 0.03138165
0.048486095 -0.08751632 0.020927228 0.025651926 -0.057688456 0.03434166 0.05538075 -0.07695387
0.01465825 0.21482028 0.0070793554 0.16479541 0.082960494 -0.0012830432 0.06619427 0.061574236
-0.12263128 -0.017659562 0.07324835 0.07790738 0.038907252 -0.22337155 0.07199873 -0.22921287
0.0776176 -0.00957215 -0.111642726 0.032438833 -0.05465561 0.13659254 -0.16443332 0.055083238
0.20527354 0.06975557 0.10108395 -0.13922714 -0.02744868 0.11040617 0.18591811 0.040202145
-0.08729456 -0.044999495 0.10165576 0.08815902 0.06938963 -0.035582997 -0.02197938 -0.12769292
-0.25934604 0.13575438 -0.0725576 -0.11830984 0.17008021 -0.091535315 -0.013707684 0.13003583
0.0030365998 -0.10295142 0.030478483 0.13874252 -0.18771301 -0.107688256 -0.0679797 -0.07374374
0.037406847 0.047459118 0.086247146 0.011861042 -0.12483501 0.15253542 0.19445923 -0.018108424
0.091723785 -0.004629836 0.028040549 0.052453388 -0.17305559 0.04618806 -0.105962336 0.07019494
-0.122975245 -0.30716428 0.10293254 -0.021258323 0.02440983 -0.018723492 -0.08669988 0.14841253
0.18007825 -0.029143274 -0.21565087 -0.08613631 -0.03056844 0.0009219954 0.048454028 -0.07046113
0.020618102 0.0028183616 0.015732849 0.009002709 0.008057483 0.037048407 0.09089146 -0.0241503
0.027604328 0.12155669 -0.09053333 0.03220369 0.011912742 -0.068124235 0.07672631 0.0059393244
-0.0862129 -0.068237685 -0.08404409 -0.04722542 0.12895446 -0.20175003 -0.12666409 0.117874295
0.087061 -0.06315356 -0.02307985 -0.06577328 0.09602213 0.0844311 0.007923079 0.09609374
0.08142126 0.02909085 -0.0422093 0.01076165 -0.269808 -0.030742776 0.26636162 -0.04204311
-0.048567202 -0.013017098 -0.098899715 0.13615917 -0.04331049 -0.08306025 -0.0340878 -0.22279024
0.3300301 0.03482311 0.14500813 -0.03497049 -0.040964577 0.046690214 -0.0926121 -0.077957995
