outputs/wind_power.pt (torch, 94628 bytes, 14 tensors)

embedding_layer.embedding.weight f4 [200, 5]
00000000: d35a cc3b a6f1 9fbd e93c a33d 3eef b33c
00000010: 029e 34be a7a6 99bd da64 b9bd 5b70 bcbd
00000020: 5044 e93c 2cea 8abe 1dd3 2c3d afc0 c2bd
00000030: 4935 9abc 8594 553e 4787 9cbe c0bb 81bc
00000040: 6457 c83d b2c1 5ebd e130 b5bc a468 ac3a
00000050: fc0e 153d 3088 683d c3df dcbd 6ed7 603c
00000060: ef32 07be d98c f0bc 14c6 90bd 6693 bebc
00000070: 1981 1fbe 2026 cbbd 2657 a43c d423 7bbd
00000080: 28d5 ba3b 3738 5fbb 9273 55bd 1971 e53d
00000090: 9a84 debc 0187 bc3d f950 1b3e 59a5 d2bd
000000a0: 2ac3 8dbd 1f1f 403d da5b 863d 3b54 043c
000000b0: 760d 463d 2531 cbbc e3da a9bc fb91 d8bd
000000c0: 343e 623a 1cf2 8c3d 12d8 673c 2901 773e
000000d0: 2cb8 f9bc 7f28 c73c 4982 27be e1fb dbbd
000000e0: d860 083e 3472 483e 3563 e5bd 91fd 20bd
000000f0: fe64 6abc cfab 07be 14a2 81bd 68c2 49bc
00000100: 2db2 f3bc b275 fc3c 787f fbbd a9b1 ee3d
00000110: 8547 8e3d cb50 cabd 93a7 273d 35f4 f63d
00000120: 1b31 38be 36fc d13d 7e52 543a f10c 133d
00000130: a704 98bd efb3 81bc b09d 0d3e 9252 853c
00000140: df14 62bc e9b5 23be 3576 9ebd aa39 d83d
00000150: 2a30 03bc 11fe c2bd 8a91 c23c 56c6 66bd
00000160: ec36 cf3d 5921 5ebe 7713 febd 4f83 4a3c
00000170: a595 123e 2db3 0dbd bf28 72be 1fba aebc
00000180: 7792 793d 241e 0fbe 35b9 bcbc 39c4 583e
00000190: 576d 48bc b34c c43d 7ec3 dc3c 635b b93d
000001a0: b7f9 9ebd 9dae b93d b78c 8cbc 147a 1e3d
000001b0: ac5e 3b3e eb88 d5bd 75ee 713d 62ee 5cbe
000001c0: aec6 84bd e02b 553e 1563 a8bd bbee 01bd
000001d0: bbad 0cbd b80a ecbd 04cd d4bd 639b ebbc
000001e0: 7316 2dbd 98d0 f3bd 0c40 5ebd f059 4cbd
000001f0: 3b56 9bbd f9dd 073e c358 ba3d 20a3 ea3d
00000200: ec12 96bd 1bd0 c4bd 3aee 82bd 25f0 55bd
00000210: 08e1 cfbc 7094 2bbe fd88 43bd 0321 583d
00000220: e280 9ebd 91b7 b03c 7944 993d 9b0c 333d
00000230: aa6e d83c 3b66 413d 25be e7bb b307 503c
00000240: d011 333e a64e 81bc 6c99 a33c 552d 8a3d
00000250: cb9c 34bd e80e adbd 76b4 15bd 4d40 74bd
00000260: 1559 023d da28 da3d 3f64 6a3d 967f b0bd
00000270: 4c54 12be b6f6 78be ed75 acbd 7d2d 05bd
00000280: 6840 46bd 38a4 9e3d 86ab 0a39 800b 39be
00000290: 666f 02be 41e8 e03d d4ac 0cbb bf02 a33d
000002a0: 9798 4a3c bc97 b33d 2403 4abd d9b8 48bb
000002b0: 883c 4c3e 4038 07be 82e1 1f3e 43b3 be3b
000002c0: 1498 a23d 77ce 183d 7b2d 913d b692 eabd
000002d0: 228e b23d 1e33 0a3e cd9c 63bc 90d4 173e
000002e0: c854 a53d d14b 913d 3749 87bc 9056 2abe
000002f0: 0c06 c1bd dfa0 c53c 0ce6 93bd 55e1 7a3c
00000300: 9b8f e73c 21cd c4bc c4b8 ef3b dc9f f9bd
00000310: 8033 203d 5b8e 603d ea24 bc3d 4c46 563d
00000320: 437d b73d 6c91 ac3d c246 dfbd f7a4 f73d
00000330: 031e 7b3d 67d9 9d3d 795d 433d 86fc 6abb
00000340: f703 50be 898b 053e 3349 433d 67c3 7a3d
00000350: c191 37be cf21 bebc b36f b8ba ef5b 33bd
00000360: d09f 8d3d d12e 723d 1891 34bd 667b 7d3c
00000370: cee6 53bc f899 3e3d 8646 41bd df38 623c
00000380: 9d85 07be 75f6 c73d f508 043e cee0 4bbe
00000390: 679b dbbd 7fb8 69bd 3587 003d f648 243d
000003a0: 5b94 7b3c 73b7 a6bd a4ec d138 7c51 32bd
000003b0: ddf0 363d ce8e 233d e673 e2bc f96a c93d
000003c0: e9ad 3d3e 47a1 1ebc 653d 4b3d 9f60 51bd
000003d0: 1ee2 a2bd 68d2 0b3e 2abd 4dbb dae1 82bb
000003e0: 66d3 043d 3002 273e bc79 ed3d c477 4abd
000003f0: f73d 9e3d 1b34 68bd bf82 053e 526b 673e
0.006236413 -0.07809763 0.07970602 0.021964666 -0.176384 -0.075024895 -0.09052439 -0.092011176
0.028474957 -0.27131784 0.04219352 -0.09509408 -0.018824236 0.20857437 -0.30571958 -0.015836596
0.097822934 -0.05438394 -0.022118034 0.0013153744 0.036391243 0.056770504 -0.10784867 0.013723237
-0.13203023 -0.029364036 -0.070690304 -0.023263644 -0.1557659 -0.09919381 0.020061087 -0.061313465
0.0057016797 -0.0034060606 -0.05211217 0.11203212 -0.027162839 0.092054375 0.15167607 -0.10285444
-0.0692199 0.04690468 0.06560488 0.008076723 0.04835268 -0.024803707 -0.020734256 -0.105747186
0.0008630485 0.06882116 0.014150636 0.24121536 -0.030483328 0.024311302 -0.16358294 -0.107414015
0.13318193 0.19574815 -0.11200563 -0.03930432 -0.014306305 -0.13249134 -0.06329742 -0.0123144165
-0.029748047 0.03081784 -0.12280172 0.1165498 0.06947235 -0.09878691 0.040931296 0.120582975
-0.17987482 0.102531835 0.00080994505 0.035901014 -0.07422762 -0.01583287 0.13829684 0.016274724
-0.013798921 -0.15987362 -0.0773739 0.105578735 -0.008007089 -0.095211156 0.023751039 -0.05634149
0.101178974 -0.21692409 -0.124060564 0.012360408 0.14314897 -0.034594703 -0.23648356 -0.021328984
0.060930695 -0.13976341 -0.023037532 0.21168603 -0.0122331 0.09584942 0.026948687 0.09050634
-0.07762473 0.09066508 -0.017156942 0.03869064 0.18297833 -0.10426506 0.0590653 -0.21575311
-0.06483208 0.20817518 -0.082220234 -0.03172181 -0.03434537 -0.11525482 -0.10390666 -0.028760618
-0.042257737 -0.119050205 -0.0542603 -0.04989046 -0.075848065 0.1326827 0.09098961 0.11456895
-0.07327828 -0.096100055 -0.06393094 -0.052230973 -0.025375858 -0.16755843 -0.047738064 0.052765857
-0.07739426 0.021571906 0.07483763 0.043713193 0.026419956 0.047216635 -0.0070722275 0.012697148
0.17487264 -0.015784573 0.019970618 0.06746928 -0.044094842 -0.08450109 -0.036549054 -0.059631635
0.031823236 0.10652323 0.05722451 -0.08618085 -0.14289969 -0.24312863 -0.0842093 -0.032514084
-0.048401266 0.07746166 0.00013224603 -0.18070793 -0.12737808 0.10981799 -0.0021465318 0.07959508
0.012365482 0.087691754 -0.0493194 -0.0030627756 0.19944966 -0.13205051 0.15613368 0.0058197095
0.07939163 0.037306275 0.07088753 -0.11453764 0.08718516 0.13496062 -0.013892365 0.1482718
0.08072811 0.07094539 -0.016514404 -0.16634583 -0.094249815 0.02412456 -0.07221612 0.015312512
0.028266719 -0.024023594 0.007315727 -0.12188694 0.039111614 0.05482326 0.09186728 0.052313134
0.08959439 0.084261745 -0.10902168 0.120920114 0.06130792 0.07707482 0.047696564 -0.0035856082
-0.20314012 0.1304151 0.04767723 0.061221506 -0.17926694 -0.02320948 -0.0014071375 -0.043788847
0.069152474 0.05912668 -0.044083685 0.015471315 -0.012933446 0.046533555 -0.047186397 0.013807504
-0.13234563 0.09763805 0.12894042 -0.19909975 -0.10723 -0.057060715 0.031378943 0.040108643
0.015355195 -0.08140459 0.00010009974 -0.04353474 0.0446633 0.03993111 -0.027643155 0.098348565
0.18523373 -0.009682006 0.049619097 -0.051117536 -0.07953285 0.13654482 -0.0031393268 -0.0039942088
0.032428168 0.16309428 0.115954846 -0.049430624 0.077266626 -0.056690317 0.13038157 0.22599533

encoder.embedding_layer.embedding.weight f4 [200, 5]
00000000: d35a cc3b a6f1 9fbd e93c a33d 3eef b33c
00000010: 029e 34be a7a6 99bd da64 b9bd 5b70 bcbd
00000020: 5044 e93c 2cea 8abe 1dd3 2c3d afc0 c2bd
00000030: 4935 9abc 8594 553e 4787 9cbe c0bb 81bc
00000040: 6457 c83d b2c1 5ebd e130 b5bc a468 ac3a
00000050: fc0e 153d 3088 683d c3df dcbd 6ed7 603c
00000060: ef32 07be d98c f0bc 14c6 90bd 6693 bebc
00000070: 1981 1fbe 2026 cbbd 2657 a43c d423 7bbd
00000080: 28d5 ba3b 3738 5fbb 9273 55bd 1971 e53d
00000090: 9a84 debc 0187 bc3d f950 1b3e 59a5 d2bd
000000a0: 2ac3 8dbd 1f1f 403d da5b 863d 3b54 043c
000000b0: 760d 463d 2531 cbbc e3da a9bc fb91 d8bd
000000c0: 343e 623a 1cf2 8c3d 12d8 673c 2901 773e
000000d0: 2cb8 f9bc 7f28 c73c 4982 27be e1fb dbbd
000000e0: d860 083e 3472 483e 3563 e5bd 91fd 20bd
000000f0: fe64 6abc cfab 07be 14a2 81bd 68c2 49bc
00000100: 2db2 f3bc b275 fc3c 787f fbbd a9b1 ee3d
00000110: 8547 8e3d cb50 cabd 93a7 273d 35f4 f63d
00000120: 1b31 38be 36fc d13d 7e52 543a f10c 133d
00000130: a704 98bd efb3 81bc b09d 0d3e 9252 853c
00000140: df14 62bc e9b5 23be 3576 9ebd aa39 d83d
00000150: 2a30 03bc 11fe c2bd 8a91 c23c 56c6 66bd
00000160: ec36 cf3d 5921 5ebe 7713 febd 4f83 4a3c
00000170: a595 123e 2db3 0dbd bf28 72be 1fba aebc
00000180: 7792 793d 241e 0fbe 35b9 bcbc 39c4 583e
00000190: 576d 48bc b34c c43d 7ec3 dc3c 635b b93d
000001a0: b7f9 9ebd 9dae b93d b78c 8cbc 147a 1e3d
000001b0: ac5e 3b3e eb88 d5bd 75ee 713d 62ee 5cbe
000001c0: aec6 84bd e02b 553e 1563 a8bd bbee 01bd
000001d0: bbad 0cbd b80a ecbd 04cd d4bd 639b ebbc
000001e0: 7316 2dbd 98d0 f3bd 0c40 5ebd f059 4cbd
000001f0: 3b56 9bbd f9dd 073e c358 ba3d 20a3 ea3d
00000200: ec12 96bd 1bd0 c4bd 3aee 82bd 25f0 55bd
00000210: 08e1 cfbc 7094 2bbe fd88 43bd 0321 583d
00000220: e280 9ebd 91b7 b03c 7944 993d 9b0c 333d
00000230: aa6e d83c 3b66 413d 25be e7bb b307 503c
00000240: d011 333e a64e 81bc 6c99 a33c 552d 8a3d
00000250: cb9c 34bd e80e adbd 76b4 15bd 4d40 74bd
00000260: 1559 023d da28 da3d 3f64 6a3d 967f b0bd
00000270: 4c54 12be b6f6 78be ed75 acbd 7d2d 05bd
00000280: 6840 46bd 38a4 9e3d 86ab 0a39 800b 39be
00000290: 666f 02be 41e8 e03d d4ac 0cbb bf02 a33d
000002a0: 9798 4a3c bc97 b33d 2403 4abd d9b8 48bb
000002b0: 883c 4c3e 4038 07be 82e1 1f3e 43b3 be3b
000002c0: 1498 a23d 77ce 183d 7b2d 913d b692 eabd
000002d0: 228e b23d 1e33 0a3e cd9c 63bc 90d4 173e
000002e0: c854 a53d d14b 913d 3749 87bc 9056 2abe
000002f0: 0c06 c1bd dfa0 c53c 0ce6 93bd 55e1 7a3c
00000300: 9b8f e73c 21cd c4bc c4b8 ef3b dc9f f9bd
00000310: 8033 203d 5b8e 603d ea24 bc3d 4c46 563d
00000320: 437d b73d 6c91 ac3d c246 dfbd f7a4 f73d
00000330: 031e 7b3d 67d9 9d3d 795d 433d 86fc 6abb
00000340: f703 50be 898b 053e 3349 433d 67c3 7a3d
00000350: c191 37be cf21 bebc b36f b8ba ef5b 33bd
00000360: d09f 8d3d d12e 723d 1891 34bd 667b 7d3c
00000370: cee6 53bc f899 3e3d 8646 41bd df38 623c
00000380: 9d85 07be 75f6 c73d f508 043e cee0 4bbe
00000390: 679b dbbd 7fb8 69bd 3587 003d f648 243d
000003a0: 5b94 7b3c 73b7 a6bd a4ec d138 7c51 32bd
000003b0: ddf0 363d ce8e 233d e673 e2bc f96a c93d
000003c0: e9ad 3d3e 47a1 1ebc 653d 4b3d 9f60 51bd
000003d0: 1ee2 a2bd 68d2 0b3e 2abd 4dbb dae1 82bb
000003e0: 66d3 043d 3002 273e bc79 ed3d c477 4abd
000003f0: f73d 9e3d 1b34 68bd bf82 053e 526b 673e
0.006236413 -0.07809763 0.07970602 0.021964666 -0.176384 -0.075024895 -0.09052439 -0.092011176
0.028474957 -0.27131784 0.04219352 -0.09509408 -0.018824236 0.20857437 -0.30571958 -0.015836596
0.097822934 -0.05438394 -0.022118034 0.0013153744 0.036391243 0.056770504 -0.10784867 0.013723237
-0.13203023 -0.029364036 -0.070690304 -0.023263644 -0.1557659 -0.09919381 0.020061087 -0.061313465
0.0057016797 -0.0034060606 -0.05211217 0.11203212 -0.027162839 0.092054375 0.15167607 -0.10285444
-0.0692199 0.04690468 0.06560488 0.008076723 0.04835268 -0.024803707 -0.020734256 -0.105747186
0.0008630485 0.06882116 0.014150636 0.24121536 -0.030483328 0.024311302 -0.16358294 -0.107414015
0.13318193 0.19574815 -0.11200563 -0.03930432 -0.014306305 -0.13249134 -0.06329742 -0.0123144165
-0.029748047 0.03081784 -0.12280172 0.1165498 0.06947235 -0.09878691 0.040931296 0.120582975
-0.17987482 0.102531835 0.00080994505 0.035901014 -0.07422762 -0.01583287 0.13829684 0.016274724
-0.013798921 -0.15987362 -0.0773739 0.105578735 -0.008007089 -0.095211156 0.023751039 -0.05634149
0.101178974 -0.21692409 -0.124060564 0.012360408 0.14314897 -0.034594703 -0.23648356 -0.021328984
0.060930695 -0.13976341 -0.023037532 0.21168603 -0.0122331 0.09584942 0.026948687 0.09050634
-0.07762473 0.09066508 -0.017156942 0.03869064 0.18297833 -0.10426506 0.0590653 -0.21575311
-0.06483208 0.20817518 -0.082220234 -0.03172181 -0.03434537 -0.11525482 -0.10390666 -0.028760618
-0.042257737 -0.119050205 -0.0542603 -0.04989046 -0.075848065 0.1326827 0.09098961 0.11456895
-0.07327828 -0.096100055 -0.06393094 -0.052230973 -0.025375858 -0.16755843 -0.047738064 0.052765857
-0.07739426 0.021571906 0.07483763 0.043713193 0.026419956 0.047216635 -0.0070722275 0.012697148
0.17487264 -0.015784573 0.019970618 0.06746928 -0.044094842 -0.08450109 -0.036549054 -0.059631635
0.031823236 0.10652323 0.05722451 -0.08618085 -0.14289969 -0.24312863 -0.0842093 -0.032514084
-0.048401266 0.07746166 0.00013224603 -0.18070793 -0.12737808 0.10981799 -0.0021465318 0.07959508
0.012365482 0.087691754 -0.0493194 -0.0030627756 0.19944966 -0.13205051 0.15613368 0.0058197095
0.07939163 0.037306275 0.07088753 -0.11453764 0.08718516 0.13496062 -0.013892365 0.1482718
0.08072811 0.07094539 -0.016514404 -0.16634583 -0.094249815 0.02412456 -0.07221612 0.015312512
0.028266719 -0.024023594 0.007315727 -0.12188694 0.039111614 0.05482326 0.09186728 0.052313134
0.08959439 0.084261745 -0.10902168 0.120920114 0.06130792 0.07707482 0.047696564 -0.0035856082
-0.20314012 0.1304151 0.04767723 0.061221506 -0.17926694 -0.02320948 -0.0014071375 -0.043788847
0.069152474 0.05912668 -0.044083685 0.015471315 -0.012933446 0.046533555 -0.047186397 0.013807504
-0.13234563 0.09763805 0.12894042 -0.19909975 -0.10723 -0.057060715 0.031378943 0.040108643
0.015355195 -0.08140459 0.00010009974 -0.04353474 0.0446633 0.03993111 -0.027643155 0.098348565
0.18523373 -0.009682006 0.049619097 -0.051117536 -0.07953285 0.13654482 -0.0031393268 -0.0039942088
0.032428168 0.16309428 0.115954846 -0.049430624 0.077266626 -0.056690317 0.13038157 0.22599533

encoder.rnn.weight_ih_l0 f4 [192, 13]
00000000: 8478 083e f6d5 fabd 84b7 f43d a94a a33c
00000010: 4d5a 09bd 6fad 103d bddc 943d 9e5c 77be
00000020: 55be 20bd 26ef 673d 00ea f3bd db6f be3d
00000030: 85a0 b33d 80c5 593c 2477 833e e3db 323e
00000040: 0c2f 113e 1590 41bd 6e52 a23e 107f 993d
00000050: b254 a4be 4633 223e 84df 243d 5d17 3fbe
00000060: 07bd 4dbe 983e 4e3e 4202 f23d 9569 4b3d
00000070: 980d f13d 521d be3d f656 a33c 0e3a 3a3d
00000080: 38bf ba3c 77fa 35be 4e82 03bc a617 a73c
00000090: caeb e5bc 236c 54be 6c70 44bd c0dc b4bd
000000a0: f936 e2bd cb86 8cbe 6925 87bd 78e4 3cbe
000000b0: f763 a5bd 8139 34bd bb5c e73a 2c3e a33d
000000c0: 55c8 453d eed9 60be 2f8a 0d3d 9dc3 51be
000000d0: beb7 463e e448 823c 0b08 1b3e 309c c63d
000000e0: 0943 b13d 4427 a23d de75 da3c 0866 f6bd
000000f0: 399b 213d 3733 67bd 06ea 8dbd 6700 c73c
00000100: 9f57 3b3e f36c a23e b811 da3d eb82 963d
00000110: d3d5 883e 2d16 d73d c84c f3bd 4863 cdbc
00000120: 31fc 463d 0bea 823d 2903 353e 4eb4 60bd
00000130: 74d2 95bd 9ab8 813e ef38 f03d 30c2 1d3e
00000140: 11b6 f23d 1747 653e 373b ac3d 5b81 103c
00000150: 1459 f93d e0d2 e5bd 04d8 b0bc be77 5b3d
00000160: 03b7 b03d 4f23 0dbc a46f 77be 32c4 0d3e
00000170: 8721 3cbd 78b6 e73d e80f ef39 315b 283e
00000180: 63c7 fcbd ac6c 983d ba0a 1bbd acfd b53b
00000190: abd2 073d ac58 92bd d75a 16be 3062 183e
000001a0: e420 3ebe b25f 99be 94dc 49be 54b2 10be
000001b0: f525 95be ea90 0f3d 3011 08bd 37e4 c9bd
000001c0: f4d6 5d3d c9cf 153c 4d5a 6abc 074e d4bd
000001d0: 6a19 fd3d 4506 553e 9959 293e 8137 d53d
000001e0: 81f1 db3c 5454 60bd 9dc2 35bd 725f 9bba
000001f0: 1a3f b83d 41e3 00bd 5217 b43d 1e21 763d
00000200: bf39 59bd a3f9 0c3e 08ea 87bd 0241 2abd
00000210: 179b 14be a13a 11be a839 03bd bcbb 07bd
00000220: 80c0 113e 0714 c0bd ed62 d43d 1ec8 aa3b
00000230: cc2e 28be 3dc5 03be 3e27 65be 4043 623b
00000240: 4d26 cabd 58cf 84bc 4841 b13d 84da 00be
00000250: f279 943d 618b be3d a23c abbd 8a4c cbbb
00000260: 0533 463d 58d2 203e a511 8cbe 0e44 88bb
00000270: 3770 60bc 4108 42bd d190 e8bd 4444 52bd
00000280: c0f5 0d3d 8ddd 11bc 76d5 62bd de62 ae3c
00000290: 9cee adbc cc4f 85bd 3099 d3bd 345b 7d3b
000002a0: 9cec f53d 30c7 c1bd 9801 9f3d 26a0 d73d
000002b0: 1396 1ebe 5f02 f2bc b404 563e 58fb 743c
000002c0: a9aa d93c bc16 ad3d 7641 1d3e cb8b 03be
000002d0: 5cc4 2a3c 0778 42be cc3f 053d 57d3 69bd
000002e0: 960d a0bd 1d25 3a3b 01c7 3ebd d84c 893e
000002f0: 0dca a23c 8633 703b 2d81 55be f4ad 7cbc
00000300: f3cf 023e 13bb debc ae67 3d3d 0eb2 433e
00000310: a4e8 4d3d bc9b d73d 31e7 633d c1b2 ea3d
00000320: 4c87 c1bd 46b4 1dbe 58af ae3d e486 88bd
00000330: 9d8b c2bd cba7 273e 8f27 febb 6e4b 15bd
00000340: 8ce1 183e 5c04 90bd 1619 6a3e 1032 053d
00000350: f358 083e 56d5 00bd f664 523e b9e1 7d3c
00000360: b4dc 8f3d 0e42 3ebd d3f4 e7bc ba22 bf3c
00000370: 1f43 753e 3157 b7bd 3bbe d5bd ea38 3a3d
00000380: e9e9 5a3d aad4 d73c 16c7 233d 3485 a2ba
00000390: 1957 4c3d 9a08 db3d 271d 113e befe 013d
000003a0: e605 0cbe 0045 903c 8234 82bd 12d8 4eba
000003b0: bf85 c4bd a8b8 b23d 6c82 32ba 8196 8abc
000003c0: 5f51 38bd 56a7 c1bc 9b0c b1bd 5d71 0b3e
000003d0: 283c 8bbc 213c 1a3d 6036 153c e099 88be
000003e0: f65e 72be 0619 0dbe a987 94bd e00c a7bd
000003f0: 2ae6 053e 845e 13be 8fe2 71bc 64eb 7d3d
0.13327223 -0.12247841 0.11949065 0.019933062 -0.033533383 0.03532165 0.07268665 -0.24156424
-0.039244015 0.056624554 -0.11909866 0.092986785 0.08770851 0.013291717 0.25676835 0.17466693
0.14178103 -0.047256548 0.31703514 0.074949384 -0.32095867 0.15839872 0.040252224 -0.18661256
-0.2009164 0.20141065 0.11816837 0.049661238 0.11770171 0.09282936 0.019938927 0.04546552
0.022796258 -0.17771326 -0.0080266725 0.020397019 -0.028066535 -0.20744376 -0.047958776 -0.08831167
-0.110456415 -0.2744659 -0.06598932 -0.18446529 -0.080757074 -0.044000152 0.0017651537 0.07970843
0.048286755 -0.21958134 0.03455561 -0.20484777 0.1940603 0.015903898 0.15139787 0.09697759
0.08655364 0.079176456 0.026667532 -0.1203118 0.039454672 -0.056445327 -0.06929402 0.024292184
0.18295144 0.31723747 0.10647911 0.07349189 0.26725635 0.105022766 -0.11879879 -0.025071755
0.048580352 0.063922964 0.17676987 -0.054859452 -0.073155314 0.25336152 0.11729609 0.15406108
0.11851133 0.223904 0.08409732 0.008819903 0.121751934 -0.11221862 -0.02158738 0.053580992
0.08628657 -0.008614375 -0.24163681 0.13844374 -0.04593041 0.113141 0.00045597483 0.16441037
-0.123427175 0.074426025 -0.037852027 0.0055539217 0.033159893 -0.07145819 -0.1468309 0.14881206
-0.18567234 -0.29955822 -0.1971305 -0.14130527 -0.2913052 0.03505031 -0.033219516 -0.09857982
0.054160073 0.009143778 -0.014303756 -0.10366445 0.12358363 0.20803173 0.16538085 0.10410977
0.026848556 -0.05476792 -0.04437505 -0.0011854006 0.08996411 -0.031466726 0.087935105 0.060090177
-0.053033587 0.13767104 -0.06636435 -0.041565903 -0.14512287 -0.14182521 -0.032037407 -0.03313802
0.14233589 -0.0937882 0.10370431 0.005211844 -0.16424102 -0.12868209 -0.22378251 0.0034524947
-0.098705865 -0.01621215 0.086550295 -0.12583357 0.07249822 0.09303928 -0.08361174 -0.0062041925
0.0483885 0.1570524 -0.27357212 -0.0041585034 -0.013698629 -0.047371153 -0.113557465 -0.051334634
0.034658194 -0.0089029195 -0.055379353 0.021287378 -0.021231942 -0.06509361 -0.103319526 0.0038659098
0.1200802 -0.0946182 0.07763976 0.10528593 -0.15486936 -0.029542146 0.20900232 0.014952503
0.026570635 0.08451602 0.15357003 -0.12846296 0.010422792 -0.189911 0.032531545 -0.057086315
-0.07815091 0.002840347 -0.046576504 0.2681644 0.019871736 0.0036651804 -0.20850058 -0.015422333
0.12774639 -0.027188813 0.046241455 0.19110891 0.05027069 0.10527751 0.055640403 0.11459876
-0.09449634 -0.154008 0.08529538 -0.06666353 -0.09499285 0.16372602 -0.0077561806 -0.03644889
0.1492979 -0.070320815 0.22861132 0.032518446 0.13315181 -0.031453453 0.20546326 0.015495711
0.07024518 -0.046449713 -0.028314983 0.023331989 0.23951386 -0.08952177 -0.10436674 0.045464434
0.05344573 0.026346523 0.039984785 -0.0012399317 0.04988775 0.10695 0.14171277 0.03173708
-0.13674125 0.017611027 -0.06357671 -0.00078904734 -0.095958225 0.08726627 -0.00068095955 -0.016917469
-0.044999477 -0.023639362 -0.086449824 0.13617463 -0.016996458 0.037655 0.009107202 -0.26679897
-0.23669037 -0.13779077 -0.072524376 -0.081567526 0.13076082 -0.14391524 -0.014763488 0.061992064

encoder.rnn.weight_hh_l0 f4 [192, 64]
00000000: 109b 9f3d c32a 713d 6875 0cbe 7669 793d
00000010: a258 a7bd 955c 7d3d 6df9 033b ad87 79bc
00000020: 1936 4d3d 2af5 f93c 9253 e53b d20b 033e
00000030: e7de 1dbe fa04 5abd 2648 b2bd 370b 7abc
00000040: 0000 14be ee00 43bd 8490 29be 772f 0fbd
00000050: 2819 fd3d ae77 d2bd 7678 dabd 1622 86bd
00000060: 9d67 af3d 6c22 95bd e7ea b5bd e7e7 4c3d
00000070: fa69 943d 93ce 003d a9f9 e1bc 01fb 95bd
00000080: 0b80 0fbd de83 3eb8 fc9e 3c3e fa70 f4bd
00000090: 0b66 33be de41 203c 7aa5 e6bd db26 73bd
000000a0: 2a80 b0bc bb52 043e 218d 493d 6572 98bd
000000b0: 8b77 1f3e c472 5dbd 0c9e 273d 685d 9dbd
000000c0: f002 cabc eebb 1b3e f12a ac3b e855 893d
000000d0: c994 4b3e b929 a7bd a368 41bd 8249 053c
000000e0: 7bc6 303e 6b7c 36be 2abb 3f3e f3a4 9f3c
000000f0: ce94 913d 6731 1ebc 612b 9b3d e342 5c3d
00000100: 6d25 97bd 2b62 71bd ea71 433c 5a0f 95bd
00000110: 67d3 adbd 534c a93d 297a 033e 63c9 1e3d
00000120: 395a cd3c d554 85bc 7d6a 7f3e 0363 463e
00000130: 2d1b e63b 463e f23d b627 153e 9292 fe3a
00000140: 62a2 453d e971 873d 93b9 1d3d 4d3e 843d
00000150: d6fc c03d 140a c5bd 9557 45be 1b3c d5bd
00000160: 861b 1abe 4cc2 5abd 40ed 1dbe cadc a83d
00000170: d15b a5bd 004b 15be 2c06 75bd 8fb9 98bd
00000180: 97d3 d53d 0e13 2cbd daf2 163e 70c7 1a3d
00000190: 3ddb 7fbb 8a21 3f3e 540d d5bb 0697 0abd
000001a0: b8a6 2e3d 18aa f4bd ce28 08be d23e 3ebd
000001b0: 096e 773d 505f 383a e04c 353d 5d8b acbd
000001c0: 2cd1 0b3e 6a69 e53c 174f b8ba 1fbf a0bd
000001d0: c265 9c3d 1ffe 9abe 17df 363e bd63 6dbd
000001e0: 80a3 7f3c 268d 5e3e 40b7 b6be 2852 253e
000001f0: 444a 343d 788b 9fbc dd13 683d 6de3 1e3d
00000200: 8646 323d 134c 8d3c 9f5c 8b3d 4d05 273d
00000210: db97 57bd a31d 6cbd 5433 493d 71db ffbd
00000220: e9ec ebbc 93a1 7abd 8487 9e3d 7166 ca3c
00000230: 5d29 10bc 6cc2 773d 4692 38be 4b83 943d
00000240: 0b3f 433e bec6 2abe 8c4b 353d 9585 0f3d
00000250: 9332 81bd 2062 e0bc cb17 b8bd cce6 06be
00000260: 1a9f 00be d737 5c3d d4fb e13b 9ca7 88bc
00000270: e54e b5bd 4513 463e 8c5f c4bd 7c83 ecbd
00000280: eaf9 15bd 4860 023e 2bff e83d d8c3 0a3e
00000290: 978f 06be 9079 0fbe 84cc a1bd 1bf1 303e
000002a0: a252 f8bd 4a4e c43d 48af e43d 8af1 0fbe
000002b0: 1b5f 63be add6 e53d 6364 5b3d 0e4a 393c
000002c0: 1e2c 0fbe 93cd 8bbd efff 633c 1f34 aaba
000002d0: b137 083d 21a8 573e c6ca 1e3e 4d4e ee3d
000002e0: 2d9b ca3d fd54 d4bb d3cb 49be 30ff b4bd
000002f0: cc8f 85bd 1238 e2bd 82ea dabc 19b1 95bd
00000300: c618 e63d 5c49 cbbc 00d6 0ebe bd75 11ba
00000310: e678 eebc 1f97 d43d 132d 503d 7377 fbbd
00000320: 0b01 16be b762 763d c17b 103e 35f1 3f3d
00000330: 9f26 cabd bb1e 80bd 73ff 96bd 3247 ff3d
00000340: 54e7 94bd 944d bd3d 5684 8fbc 694a 98bd
00000350: 9297 aa3d b339 3bbd 85b3 03be b422 30bd
00000360: 2d18 a43c 5531 de3d a1db f8bd 8380 63bd
00000370: 0645 aabd 374f f4bb 64f7 733d 2dd9 0e3e
00000380: 13d7 2cbd 300c 143d ea93 a83c 6ac1 cebd
00000390: a6ba 253d c142 843e 7ac6 0c3d 97a1 92bd
000003a0: a006 4ebd 6beb b13b a7e9 60bc c004 093e
000003b0: 3473 583c f00f 983d 5337 1f3e 05f4 98bd
000003c0: 1231 433d c46c 3ebd bf6d ca3c 23a9 90bd
000003d0: c487 0fbd d484 d83d 89bf 4f3e 9561 1d3d
000003e0: 5127 18bd 9bc2 ccbd 5ec8 10be dadc 0fbd
000003f0: 88dc 28bc dd53 4bbc effd 3a3d 9de8 843d
0.07793248 0.05887867 -0.13716662 0.06089159 -0.08171202 0.06185587 0.0020137683 -0.0152301015
0.05010042 0.030512411 0.0069984877 0.12797478 -0.15417062 -0.053227402 -0.087051675 -0.015261463
-0.14453125 -0.04760831 -0.16559035 -0.034957375 0.12358314 -0.10276733 -0.10667507 -0.0654947
0.085646845 -0.07281956 -0.08882695 0.050025847 0.07246776 0.031447005 -0.027584868 -0.07323266
-0.03503422 -4.542234e-05 0.18420023 -0.11935611 -0.17519395 0.009781329 -0.11262031 -0.059363227
-0.021545488 0.12922184 0.049206857 -0.07443694 0.15572946 -0.054064527 0.04092221 -0.076838315
-0.024659604 0.15208408 0.0052541425 0.067058384 0.19880976 -0.08162255 -0.04721893 0.008135201
0.17263214 -0.17820899 0.18723741 0.019487834 0.0710846 -0.009655333 0.07576633 0.053774726
-0.07380185 -0.05893151 0.011929015 -0.07278319 -0.084875874 0.08266511 0.12839569 0.038766276
0.025067436 -0.016275803 0.24942966 0.19373707 0.0070222826 0.11828284 0.1456593 0.0019422343
0.048250563 0.066135235 0.038507055 0.064571954 0.09423225 -0.09621063 -0.19271691 -0.10411855
-0.15049562 -0.053407952 -0.15422535 0.08245237 -0.08074153 -0.14579391 -0.05982034 -0.074572675
0.10440748 -0.04201036 0.14741078 0.037787855 -0.0039040588 0.18665138 -0.006501833 -0.033835433
0.042639464 -0.11946505 -0.13296816 -0.04644663 0.060407672 0.00070332456 0.044262767 -0.08425019
0.13654011 0.028004367 -0.0014061657 -0.078489535 0.07636596 -0.30272004 0.1785854 -0.057956446
0.015602946 0.21733531 -0.35686684 0.16144621 0.044016138 -0.019475684 0.056659568 0.03879111
0.043524288 0.01724819 0.068047754 0.04077654 -0.052635055 -0.05764545 0.049121216 -0.12493027
-0.028799491 -0.061189245 0.07740691 0.024707051 -0.008798924 0.06048815 -0.18024549 0.07251605
0.19067018 -0.16677377 0.0442615 0.035039503 -0.063084744 -0.02739054 -0.08988913 -0.1317398
-0.12560692 0.05376419 0.0068964753 -0.016681485 -0.088529386 0.19343288 -0.095885366 -0.11548516
-0.03661529 0.12732041 0.113767944 0.13551271 -0.13140713 -0.14011216 -0.079003364 0.17279474
-0.12125136 0.09585245 0.11166245 -0.14056984 -0.22204249 0.11222587 0.053562533 0.01130916
-0.13981673 -0.068263195 0.013916 -0.0012985504 0.033256236 0.2106023 0.1550704 0.116360284
0.09892879 -0.006479858 -0.19706659 -0.08837736 -0.06521568 -0.11045851 -0.02672315 -0.07309169
0.11235194 -0.024815254 -0.13948822 -0.00055488554 -0.029110383 0.103803866 0.050824236 -0.122786425
-0.14648835 0.060152736 0.14109708 0.046860892 -0.09870648 -0.06255861 -0.07372942 0.12464751
-0.07270685 0.092433125 -0.017519157 -0.074360676 0.08329691 -0.045709323 -0.1286145 -0.043001845
0.02003106 0.10849253 -0.12151266 -0.05554248 -0.083139464 -0.007455732 0.059562102 0.13950033
-0.0421973 0.036144435 0.020578343 -0.100954846 0.040461205 0.2583218 0.03436897 -0.07159727
-0.050299287 0.0054296753 -0.013727582 0.13380718 0.01321106 0.07424915 0.15548448 -0.07468418
0.04765422 -0.046490446 0.024710534 -0.0706351 -0.035041586 0.1057221 0.20287909 0.03842314
-0.03714687 -0.099980555 -0.14138934 -0.03512273 -0.010306485 -0.012410131 0.045652326 0.0648968

encoder.rnn.bias_ih_l0 f4 [192]
00000000: 88d3 6b3b 44ff 0f3d ae04 883c d760 863c
00000010: 4445 2d3c 948b d43c 4e04 22bb 0996 543c
00000020: 2c20 5f3d 33af 423c 4e45 563d 8096 f83b
00000030: 2fb4 ab3c afd1 dd3b e936 b8bc f2d1 45bc
00000040: b151 32bc 58eb 083d 7354 af3c a745 71bd
00000050: 1b32 91bc b4ed 87bd 3c58 823b b9b6 82bc
00000060: 5b2f 043c be62 0bbd ec24 05bc b358 993b
00000070: c556 663c ae8d 1d3d 8c0c 023d cee1 debc
00000080: f366 08bc 207a 1e3d 375d 3bbd 70be 2c3c
00000090: 1db1 1c3d 3ca0 cf3d b707 a43c 8e04 3ebd
000000a0: a380 2b3d d621 9a3d 5ea5 3d3d 39fe af3c
000000b0: ba1d d03d 21da 73bc 877c 213c 946f 493c
000000c0: aec1 9ebb 0dfc 20bc 12b8 453b 6d0f 43bd
000000d0: e793 283c acef cf3c 9ed6 a4bc 81e1 5b3d
000000e0: c2f7 0abb 2a5a 363d e92d 773d 7fae a0bc
000000f0: d821 94bc c9ab adbc b014 783d 2025 a23c
00000100: 1d24 183c 181b bcbd ba46 9bbc 3da7 38bd
00000110: c3bf 02be 518d 863c d4a1 87bd 5d3b 6a3c
00000120: c7fe 8f3d ac85 48bd 30db f13c 3979 9cbd
00000130: d1dd b73d 0f7c 2cbd 1224 41bd 71f1 05b9
00000140: c0da e9bd af64 53bc f470 83bc 5bd9 1abe
00000150: 4ca5 893d 975d 763d c643 03be 0f1c efbd
00000160: 6530 53bd fad4 acbd 3fee b3bc 1cb7 ea3c
00000170: daaf 96bd 4790 7c3d 9963 bdbb 1f0d 33be
00000180: ee0e 223d 5d75 cdbc 1541 833d 0e62 f7bc
00000190: 0ee7 6b3d e90b 623d 7d41 acbc f8e2 0abd
000001a0: bdc0 28bc c9b6 a33c d02c b8bc 40fc 85bd
000001b0: 70f7 9bbd 306b b4bd 25c7 95bd 35ae c13c
000001c0: 6ef2 f3bd b03f 123a cea3 c1bc 6116 603b
000001d0: 1e18 463d 9111 f03b 45f8 24be 501e 48bd
000001e0: e0fb a7bd ca4a 113d 695d 023d e414 0a3d
000001f0: 62e9 d8bc 5b1d 22be 8282 783d 7c6d 683c
00000200: c6ca e4bc 759c 91bc 3cfa 24bc 0a70 153c
00000210: 5c5e a63c fb3b c5bc 31fb 04bc 98b3 043b
00000220: 82a2 5a3d a76b a63c dff5 9a3c 8b5c fa3a
00000230: 42f7 93bc 363c fd3b 6eae 4e3b f370 31bb
00000240: 7345 293c 97af 20bd 8753 2fbc cc77 5e3c
00000250: 9a07 1c3d fe5a 8e3c a87c 943c ab7e bbbc
00000260: 4c40 97bc 487b 40bc 170a 5bbc f738 583c
00000270: 706a 9d3c 4c09 fa3c 210e 343c 7288 08bc
00000280: eff9 3dbc c930 913a 76d0 4fbc d3a8 5cbc
00000290: 64d7 b13a 1559 763d 0294 f23c eb42 27bb
000002a0: 0314 93bc d92e 99bd 0115 3c3d 244d f43c
000002b0: 2e3e c63d da88 43bb cc8b 483c db85 4eba
000002c0: 73a0 323c b1f0 0cbc 4c22 223c 5a50 403c
000002d0: 7273 db3c 54b9 563c 4828 a73c 4d44 683c
000002e0: 7a3c 473c f0a4 82bc d06c b13c d7bd 9c3b
000002f0: f234 35ba b44a a2bc 0580 f23c 9617 b13c
0.0035984237 0.03515555 0.016603794 0.016403599 0.010575596 0.025945462 -0.0024721804 0.012975224
0.05447404 0.011882591 0.052312188 0.0075863004 0.020959942 0.006769381 -0.02248712 -0.012073981
-0.010883735 0.033427566 0.021402573 -0.058904316 -0.017724087 -0.06637135 0.0039778035 -0.01595627
0.008067931 -0.034029715 -0.008126479 0.004679763 0.014058773 0.038465194 0.031750247 -0.027207281
-0.008325326 0.038690686 -0.045743193 0.010543451 0.038254846 0.10137984 0.02002321 -0.046391062
0.041870724 0.07525985 0.046300285 0.021483527 0.1016192 -0.014883549 0.00985635 0.012294669
-0.0048448658 -0.009825719 0.003016953 -0.047622133 0.010289169 0.02538284 -0.020121869 0.053681854
-0.0021204804 0.04451958 0.060346518 -0.019614456 -0.018082544 -0.021200078 0.060566604 0.019793093
0.009285954 -0.09184855 -0.018954623 -0.045081366 -0.12768464 0.016424807 -0.06622663 0.01429638
0.07031017 -0.048955604 0.029523462 -0.07640309 0.08977855 -0.0421105 -0.04715354 -0.00012773812
-0.114186764 -0.012902423 -0.016045071 -0.15121977 0.06720981 0.060147848 -0.12818822 -0.116752736
-0.051559824 -0.084390596 -0.02196419 0.028651766 -0.0735776 0.06166103 -0.005779695 -0.17485474
0.03956502 -0.025080377 0.06408898 -0.030198123 0.057593398 0.05518714 -0.021027321 -0.03390786
-0.010299859 0.01998462 -0.022482306 -0.065422535 -0.07615554 -0.08809507 -0.073133744 0.023642639
-0.11911474 0.0005578948 -0.023637678 0.0034193026 0.048362844 0.007326313 -0.16110332 -0.048857033
-0.08202338 0.035471715 0.031827364 0.03371133 -0.026478473 -0.1583151 0.060671337 0.014186259
-0.027928721 -0.0177748 -0.010069426 0.0091209505 0.020308666 -0.024076452 -0.008116529 0.0020248648
0.053377636 0.020315005 0.018916069 0.0019101066 -0.018062238 0.007728125 0.0031537074 -0.002707538
0.010331499 -0.039229956 -0.010701067 0.0135783665 0.038093187 0.017377373 0.018125847 -0.022887548
-0.018463276 -0.011748143 -0.013369105 0.013197175 0.019215792 0.030522011 0.010989697 -0.008333312
-0.011595233 0.0011077161 -0.012683978 -0.013467985 0.001356822 0.06014355 0.029611591 -0.0025522064
-0.017953878 -0.074796386 0.04591847 0.02982194 0.096798286 -0.0029836209 0.012240361 -0.00078782224
0.010902512 -0.008602307 0.009895872 0.011737907 0.026788447 0.013105709 0.02040495 0.01417644
0.012160415 -0.015947789 0.021658331 0.004783373 -0.00069124915 -0.019811012 0.02960206 0.021617692

encoder.rnn.bias_hh_l0 f4 [192]
00000000: 7cd3 6b3b 44ff 0f3d b104 883c d560 863c
00000010: 4745 2d3c 958b d43c 7a04 22bb 0096 543c
00000020: 2f20 5f3d 33af 423c 4b45 563d 7596 f83b
00000030: 29b4 ab3c ced1 dd3b f236 b8bc ecd1 45bc
00000040: ab51 32bc 54eb 083d 7054 af3c a945 71bd
00000050: 1932 91bc b4ed 87bd 3958 823b bbb6 82bc
00000060: 602f 043c bb62 0bbd e724 05bc b758 993b
00000070: a656 663c af8d 1d3d 8d0c 023d d1e1 debc
00000080: f166 08bc 1e7a 1e3d 365d 3bbd 6dbe 2c3c
00000090: 1db1 1c3d 3ba0 cf3d b907 a43c 8a04 3ebd
000000a0: a280 2b3d d321 9a3d 60a5 3d3d 3bfe af3c
000000b0: b51d d03d 28da 73bc 807c 213c 8f6f 493c
000000c0: bfc1 9ebb 10fc 20bc 22b8 453b 6c0f 43bd
000000d0: e593 283c acef cf3c 9bd6 a4bc 82e1 5b3d
000000e0: 09f8 0abb 295a 363d ed2d 773d 8aae a0bc
000000f0: db21 94bc c4ab adbc af14 783d 1b25 a23c
00000100: 2224 183c 181b bcbd bc46 9bbc 39a7 38bd
00000110: c3bf 02be 4d8d 863c d4a1 87bd 703b 6a3c
00000120: c8fe 8f3d ac85 48bd 2ddb f13c 3979 9cbd
00000130: d1dd b73d 0e7c 2cbd 1324 41bd c7f3 05b9
00000140: c1da e9bd af64 53bc ec70 83bc 5bd9 1abe
00000150: 4ca5 893d 965d 763d c743 03be 111c efbd
00000160: 6130 53bd f9d4 acbd 40ee b3bc 1fb7 ea3c
00000170: daaf 96bd 4590 7c3d a263 bdbb 1d0d 33be
00000180: ef0e 223d 6075 cdbc 1641 833d 0562 f7bc
00000190: 10e7 6b3d e80b 623d 7d41 acbc f6e2 0abd
000001a0: c3c0 28bc c3b6 a33c d32c b8bc 42fc 85bd
000001b0: 73f7 9bbd 326b b4bd 24c7 95bd 2cae c13c
000001c0: 6df2 f3bd c63f 123a cea3 c1bc 7c16 603b
000001d0: 1f18 463d 9811 f03b 44f8 24be 4f1e 48bd
000001e0: dffb a7bd ca4a 113d 6a5d 023d e614 0a3d
000001f0: 63e9 d8bc 5b1d 22be 8282 783d 776d 683c
00000200: e8d5 d3bc d0fa 57bc 61bc f5bb d16c 893b
00000210: 098d 8e3c 8aec e5bc 02d9 243c 20cb 82bc
00000220: a59a 3d3d e996 c93c c9fd 963c 953d 8c3b
00000230: 0747 4fbc 6bff 393a df83 0b3c 49eb f2bb
00000240: b40f e93b e710 0dbd a6fa 4fbc b2cd d3b9
00000250: 07c1 103d b277 333c 0404 9d3c a35a 2fbc
00000260: c8c8 9cbc 2f86 ccbb fa99 5cbc c062 153c
00000270: dd80 073d 759d e63c 72e9 b53c d2bb b1bc
00000280: 9b6d 56bc 164b cbbb 4b3b c0bb 66c0 6fbc
00000290: 7e8c 6f3c e13e 793d 74bf fa3c 5529 55b9
000002a0: 72f6 3fbc cc10 b7bd 14b3 403d de47 143d
000002b0: 5af4 033e ff2b 67bb e766 ad3c 8fda 0a3b
000002c0: a698 cd3b deef 8cbb 55a2 cb3c 29ba 0e3c
000002d0: bc00 063d 7db8 4a3c 67f2 8c3c d8d3 8d3c
000002e0: 8083 be3c f8ba 46bd ebd6 263d 99c8 eabb
000002f0: 620b 18bb f4dd b6bc f24d d23c 0802 ea3c
0.0035984209 0.03515555 0.0166038 0.016403595 0.010575599 0.025945464 -0.0024721907 0.012975216
0.054474052 0.011882591 0.052312177 0.0075862953 0.02095993 0.0067693954 -0.022487137 -0.012073975
-0.010883729 0.03342755 0.021402568 -0.058904324 -0.017724084 -0.06637135 0.003977802 -0.015956273
0.008067936 -0.034029704 -0.008126474 0.004679765 0.014058745 0.038465198 0.03175025 -0.027207287
-0.008325324 0.03869068 -0.04574319 0.010543448 0.038254846 0.101379834 0.020023214 -0.046391048
0.04187072 0.07525983 0.046300292 0.021483531 0.10161916 -0.0148835555 0.009856343 0.012294664
-0.0048448737 -0.009825721 0.0030169566 -0.04762213 0.010289167 0.02538284 -0.020121863 0.053681858
-0.002120497 0.044519577 0.060346533 -0.019614477 -0.01808255 -0.021200068 0.0605666 0.019793084
0.0092859585 -0.09184855 -0.018954627 -0.04508135 -0.12768464 0.0164248 -0.06622663 0.014296398
0.070310175 -0.048955604 0.029523456 -0.07640309 0.08977855 -0.042110495 -0.047153544 -0.00012774683
-0.11418677 -0.012902423 -0.016045056 -0.15121977 0.06720981 0.060147844 -0.12818824 -0.11675275
-0.05155981 -0.08439059 -0.021964192 0.028651772 -0.0735776 0.061661024 -0.0057796994 -0.17485471
0.039565023 -0.025080383 0.064088985 -0.030198107 0.057593405 0.055187136 -0.021027321 -0.033907853
-0.010299864 0.019984609 -0.022482311 -0.06542255 -0.076155566 -0.088095084 -0.07313374 0.023642622
-0.119114734 0.0005578961 -0.023637678 0.003419309 0.048362847 0.007326316 -0.16110331 -0.04885703
-0.082023375 0.035471715 0.031827368 0.033711337 -0.026478475 -0.1583151 0.060671337 0.014186255
-0.025858834 -0.013182357 -0.007499263 0.00419388 0.017401235 -0.028066892 0.010061504 -0.015965998
0.04629006 0.024608092 0.018431561 0.004279802 -0.012651212 0.000709525 0.008515327 -0.007413302
0.0071124677 -0.034439947 -0.012694037 -0.0004039831 0.035340335 0.010953831 0.019166954 -0.010702762
-0.019138709 -0.006241582 -0.013464445 0.009117782 0.033081878 0.028151253 0.022206042 -0.021696005
-0.013087655 -0.0062040193 -0.0058664433 -0.014633274 0.014620898 0.06085098 0.03060887 -0.0002032866
-0.011716472 -0.089387506 0.047045782 0.03620135 0.12886181 -0.0035274026 0.021167232 0.00211874
0.0062743006 -0.0043010553 0.02485768 0.008711376 0.032715544 0.012373087 0.01720543 0.017312929
0.023256063 -0.04851815 0.040732305 -0.0071650264 -0.0023200144 -0.022322632 0.025671933 0.028565422

encoder.fc.weight f4 [32, 64]
00000000: e3ea 863d 5b81 b8bd 9579 0a3d 03be 97bd
00000010: a314 853d 7775 3abe 8325 1f3c 87dd 3c3e
00000020: 34cd 27be dbb9 d43d 03ac e93d 91cd bd3d
00000030: 0790 8dbd 8aa8 b1bd a793 c43c cb3c 203e
00000040: edbe 75be 68a5 00be 2582 093d 582e 2cbe
00000050: d169 423c 2ecb 36be 314a 133e c9e1 37be
00000060: f242 8e39 fec0 61be dc42 63be ae20 043b
00000070: 9855 14bd bc83 4c3d f3c5 5e3d 4feb 393b
00000080: cdec 373e 38c7 7c3c e894 143d ca53 00be
00000090: 5660 af3d 5026 473d 5b34 90bd b44d 8a3d
000000a0: 54eb 11be 29fa f4bd 6a15 243c 4093 f23d
000000b0: f4eb 6d3c 4d58 bdbc dfbf ef3d 8049 08bc
000000c0: 0acc 8cbd 5127 53bc 2e0a 82bd 8a19 20bc
000000d0: c90c 633e 22c8 00be 3068 86be befa b33d
000000e0: e596 6abc 1652 e1bd 3150 de3d 2910 1dba
000000f0: 40a5 6a3d 584f 533a 5fcc a2bc 6bac 55bc
00000100: 71ad 69bd 0e81 26be 7bf4 ec3d 9625 333d
00000110: cb27 d2bd 2d8a 85bc 2b79 fc3a 9839 37be
00000120: 9e04 8cbd 79db 20be 0f3d c83d 5f6f a73d
00000130: 57ce 083d 6c91 c1bd 516b 94be f30d 10be
00000140: f79e a3bc 5fe5 a8bd ff59 50be 661e 253d
00000150: b6aa b1bc 5543 44bc 5c67 b73c 0f99 f23b
00000160: f4c9 92be 0417 1e3e 1b23 8d3d b7d5 0abe
00000170: bc0e af3c 393b 0f3d 64b5 fabb e47a 03bd
00000180: 94f1 883d 3b9e 9fbd 7101 563d db48 8dbd
00000190: 5cae e5bd 1129 713c b514 423d 2669 20be
000001a0: a122 fa3d f053 45bd 224d 65bd 25b5 3dbd
000001b0: f00f acbd 7ec6 0e3e f6b2 ebbd 539e 923d
000001c0: b219 b03b edc0 8c3d 8e4d 533c 8a54 0bbe
000001d0: c2ae ef3d d6fb eebd b333 2bbd e070 273e
000001e0: f68d 94bb 31bb 9f3c 6005 4cbd 4af6 d2bc
000001f0: 16a5 c53d 744d e93c 0c54 f4bc fe7d 3f3c
00000200: b543 e13d c04c 81be 927b e83a 8421 6a3d
00000210: 37c2 03be 46da c13c ed25 efbd 32cf a73d
00000220: 1db5 20bd c578 f63d a768 02be 5c2f b1bd
00000230: 7d43 413e ea32 883c 6038 583e 16d6 82bd
00000240: bde8 8dbe f53c b1be 7f18 91bb f683 c5bb
00000250: faa1 7cbd b481 f8bd 3f69 dabc 34c6 5e3e
00000260: 4100 8d3d 6f39 273e 3d7e aebd af8a 593b
00000270: f29f babd 8963 4bbe b4ab 25be deb4 3c3e
00000280: 63bf 94bd 6b39 93bd f1fd 16be 10af 90bd
00000290: f388 28bd 5ca5 8a3b f3ed eebc aa43 28be
000002a0: cf3f cabd 8a9c 083e 8e15 92bd a644 81bd
000002b0: 94ee 28bd 98c6 8abd e939 18be de27 1dbe
000002c0: ca10 233d 3611 cabd 99b6 673b 5c30 353d
000002d0: a352 b2bd 8eb5 2abe 6800 50bc 436d 0bbe
000002e0: 7eff bbbc 3d65 24be b1f8 a33c ef64 cebc
000002f0: 0908 533d aed9 833c b957 17bd 8877 113e
00000300: 13a1 af3c 28a5 4b3e 66f1 a4bd e6ae 2c3c
00000310: 5b19 f8bd c072 033e ea3d 9e3b 9e12 963c
00000320: 2241 c53d d903 953d 8208 fcbd f76f 04be
00000330: 9c79 693b 4423 86bc d04e 093e 3294 e33d
00000340: 3612 dc3d 46e3 f9bd fab9 f4bd 4ac6 bb3d
00000350: 1bc7 0fbd 764b 9f3d 858d 1dbd 8355 d13d
00000360: a3e9 c7bc 92e0 873c ec23 05bd ceb6 86bd
00000370: dd6d 74bb 85e7 5f3c d174 5abc 29cd 7fbd
00000380: eb98 b2bd 4360 16be f26f 82bd c0d6 24bd
00000390: e879 8b3d 22b6 dc3d 2e8b fabd c825 9dbc
000003a0: 05d8 da3d db3d 1cbd d9b4 49bd 9058 223b
000003b0: ab4d ddbb 8716 173c d496 28bd c7cb 073e
000003c0: 5f3f 1abe 31a5 a3bd fee1 6bbd f0d0 df3a
000003d0: 034e 47bb d966 abbd a2ec e93d 2758 873c
000003e0: 751f d4bc d799 e4bd 0e1c 903d 049c 9e3d
000003f0: eba5 5b3b 453f fe3c 88e7 d33d 52ac 58bd
0.0658777 -0.090090476 0.033807356 -0.07409289 0.06498077 -0.18208872 0.009713533 0.18443881
-0.16386873 0.103870116 0.11409762 0.09267724 -0.06912237 -0.086747244 0.023996187 0.1564819
-0.23998614 -0.12563097 0.03357138 -0.16814554 0.011866049 -0.17850944 0.1438377 -0.17957224
0.0002713423 -0.22046277 -0.22193474 0.002016108 -0.03621444 0.04993032 0.054387998 0.0028369015
0.17961426 0.015428357 0.03627482 -0.12531963 0.085632965 0.048620522 -0.07041236 0.06753102
-0.14249927 -0.11961777 0.010014871 0.11844492 0.014521588 -0.023113394 0.117065184 -0.008318305
-0.06874855 -0.012887792 -0.06349598 -0.009771714 0.22172846 -0.12576345 -0.26251364 0.0878806
-0.014318203 -0.11001985 0.10855139 -0.0005991483 0.0572865 0.00080608344 -0.019872842 -0.013041596
-0.057050172 -0.16260168 0.115700684 0.043737017 -0.10261496 -0.016301239 0.0019262185 -0.17893064
-0.06836818 -0.15708722 0.09777271 0.08175539 0.033399906 -0.09451565 -0.28988126 -0.14067821
-0.019973261 -0.08246874 -0.20346831 0.040312193 -0.021687847 -0.011978944 0.022388153 0.0074035
-0.28669703 0.15438467 0.068914615 -0.13558088 0.02136933 0.03496859 -0.007651018 -0.03209962
0.06686702 -0.07793852 0.05224747 -0.06898662 -0.11214897 0.014719264 0.04738303 -0.15665111
0.12213636 -0.048175752 -0.055981763 -0.04631533 -0.08401477 0.13942906 -0.115087435 0.07159104
0.005374157 0.06872735 0.012896908 -0.13606468 0.11703254 -0.11669128 -0.04179735 0.16351652
-0.0045335246 0.01949844 -0.049809813 -0.025752205 0.09650628 0.028479315 -0.029825233 0.011687754
0.10999242 -0.25253868 0.0017737022 0.05716087 -0.12867056 0.023663651 -0.11677156 0.08193816
-0.039235223 0.12034754 -0.12735234 -0.08651611 0.18873401 0.01662584 0.21115255 -0.0638849
-0.27716628 -0.3461682 -0.004427969 -0.006027694 -0.06167791 -0.12134114 -0.026661513 0.21755296
0.06884814 0.16330503 -0.08520172 0.0033194234 -0.091125384 -0.19862188 -0.16178781 0.1842837
-0.072630666 -0.07188686 -0.14745308 -0.070646405 -0.04114623 0.004231138 -0.029166197 -0.16432062
-0.09875452 0.13340965 -0.071330175 -0.06311922 -0.04124315 -0.0677616 -0.14865841 -0.1534724
0.039810933 -0.09866564 0.003535664 0.044235572 -0.08707168 -0.1667082 -0.012695409 -0.13615899
-0.022948977 -0.16054244 0.020016046 -0.025194613 0.051521335 0.016095009 -0.036948893 0.14205754
0.02143911 0.19887221 -0.080538556 0.010539746 -0.12114211 0.12836742 0.004829158 0.018319424
0.09631564 0.072761245 -0.1230631 -0.12933336 0.0035625463 -0.016374238 0.13408971 0.111122504
0.10745661 -0.12201552 -0.11949535 0.0916868 -0.03510199 0.07778065 -0.03846504 0.10221388
-0.024403399 0.016586576 -0.03250496 -0.06577836 -0.003729693 0.013666038 -0.013333515 -0.062451515
-0.08720573 -0.14685158 -0.06369008 -0.040243864 0.06810361 0.107769266 -0.12233578 -0.019183055
0.10685734 -0.038144927 -0.049244735 0.0024772026 -0.0067536435 0.0092216795 -0.041159466 0.13261329
-0.15063237 -0.07990492 -0.05758857 0.0017075818 -0.003041149 -0.08369226 0.11422087 0.016521527
-0.025893906 -0.11162155 0.07036601 0.07744601 0.0033515643 0.031036029 0.103468955 -0.052898712

encoder.fc.bias f4 [32]
00000000: 363b 99bb 7966 373c b809 68bc 4c33 03bb
00000010: e78d 393c 3389 d63b 00f3 5c3d 620a 3cbc
00000020: 26fc eebb 8942 683d 11cf daba 97b9 33bc
00000030: 8b21 7b3b d5fd b03c 78af 293c 68a4 d9bb
00000040: a87e 783c 7a4a a4bc 4d1e 04b9 61e0 8e3c
00000050: b826 643b eddb 41b9 af73 3bbb 2b18 1dbc
00000060: 7c8a 1c3d e7d5 d13c 9b87 87bc 6520 6b3d
00000070: 08ce 86bc a3c3 98ba f74b 953b a214 9cbb
-0.004676248 0.011193865 -0.014162473 -0.002001959 0.011325336 0.006547117 0.05394268 -0.011477085
-0.007293242 0.056704078 -0.0016693791 -0.010969541 0.0038319554 0.021605412 0.010356776 -0.006641913
0.015166916 -0.020055044 -0.00012599789 0.017440977 0.0034813117 -0.00018487843 -0.0028602888 -0.009588282
0.038218006 0.025614692 -0.016544154 0.05740394 -0.016455665 -0.0011654984 0.004556175 -0.004763202

decoder.embedding_layer.embedding.weight f4 [200, 5]
00000000: d35a cc3b a6f1 9fbd e93c a33d 3eef b33c
00000010: 029e 34be a7a6 99bd da64 b9bd 5b70 bcbd
00000020: 5044 e93c 2cea 8abe 1dd3 2c3d afc0 c2bd
00000030: 4935 9abc 8594 553e 4787 9cbe c0bb 81bc
00000040: 6457 c83d b2c1 5ebd e130 b5bc a468 ac3a
00000050: fc0e 153d 3088 683d c3df dcbd 6ed7 603c
00000060: ef32 07be d98c f0bc 14c6 90bd 6693 bebc
00000070: 1981 1fbe 2026 cbbd 2657 a43c d423 7bbd
00000080: 28d5 ba3b 3738 5fbb 9273 55bd 1971 e53d
00000090: 9a84 debc 0187 bc3d f950 1b3e 59a5 d2bd
000000a0: 2ac3 8dbd 1f1f 403d da5b 863d 3b54 043c
000000b0: 760d 463d 2531 cbbc e3da a9bc fb91 d8bd
000000c0: 343e 623a 1cf2 8c3d 12d8 673c 2901 773e
000000d0: 2cb8 f9bc 7f28 c73c 4982 27be e1fb dbbd
000000e0: d860 083e 3472 483e 3563 e5bd 91fd 20bd
000000f0: fe64 6abc cfab 07be 14a2 81bd 68c2 49bc
00000100: 2db2 f3bc b275 fc3c 787f fbbd a9b1 ee3d
00000110: 8547 8e3d cb50 cabd 93a7 273d 35f4 f63d
00000120: 1b31 38be 36fc d13d 7e52 543a f10c 133d
00000130: a704 98bd efb3 81bc b09d 0d3e 9252 853c
00000140: df14 62bc e9b5 23be 3576 9ebd aa39 d83d
00000150: 2a30 03bc 11fe c2bd 8a91 c23c 56c6 66bd
00000160: ec36 cf3d 5921 5ebe 7713 febd 4f83 4a3c
00000170: a595 123e 2db3 0dbd bf28 72be 1fba aebc
00000180: 7792 793d 241e 0fbe 35b9 bcbc 39c4 583e
00000190: 576d 48bc b34c c43d 7ec3 dc3c 635b b93d
000001a0: b7f9 9ebd 9dae b93d b78c 8cbc 147a 1e3d
000001b0: ac5e 3b3e eb88 d5bd 75ee 713d 62ee 5cbe
000001c0: aec6 84bd e02b 553e 1563 a8bd bbee 01bd
000001d0: bbad 0cbd b80a ecbd 04cd d4bd 639b ebbc
000001e0: 7316 2dbd 98d0 f3bd 0c40 5ebd f059 4cbd
000001f0: 3b56 9bbd f9dd 073e c358 ba3d 20a3 ea3d
00000200: ec12 96bd 1bd0 c4bd 3aee 82bd 25f0 55bd
00000210: 08e1 cfbc 7094 2bbe fd88 43bd 0321 583d
00000220: e280 9ebd 91b7 b03c 7944 993d 9b0c 333d
00000230: aa6e d83c 3b66 413d 25be e7bb b307 503c
00000240: d011 333e a64e 81bc 6c99 a33c 552d 8a3d
00000250: cb9c 34bd e80e adbd 76b4 15bd 4d40 74bd
00000260: 1559 023d da28 da3d 3f64 6a3d 967f b0bd
00000270: 4c54 12be b6f6 78be ed75 acbd 7d2d 05bd
00000280: 6840 46bd 38a4 9e3d 86ab 0a39 800b 39be
00000290: 666f 02be 41e8 e03d d4ac 0cbb bf02 a33d
000002a0: 9798 4a3c bc97 b33d 2403 4abd d9b8 48bb
000002b0: 883c 4c3e 4038 07be 82e1 1f3e 43b3 be3b
000002c0: 1498 a23d 77ce 183d 7b2d 913d b692 eabd
000002d0: 228e b23d 1e33 0a3e cd9c 63bc 90d4 173e
000002e0: c854 a53d d14b 913d 3749 87bc 9056 2abe
000002f0: 0c06 c1bd dfa0 c53c 0ce6 93bd 55e1 7a3c
00000300: 9b8f e73c 21cd c4bc c4b8 ef3b dc9f f9bd
00000310: 8033 203d 5b8e 603d ea24 bc3d 4c46 563d
00000320: 437d b73d 6c91 ac3d c246 dfbd f7a4 f73d
00000330: 031e 7b3d 67d9 9d3d 795d 433d 86fc 6abb
00000340: f703 50be 898b 053e 3349 433d 67c3 7a3d
00000350: c191 37be cf21 bebc b36f b8ba ef5b 33bd
00000360: d09f 8d3d d12e 723d 1891 34bd 667b 7d3c
00000370: cee6 53bc f899 3e3d 8646 41bd df38 623c
00000380: 9d85 07be 75f6 c73d f508 043e cee0 4bbe
00000390: 679b dbbd 7fb8 69bd 3587 003d f648 243d
000003a0: 5b94 7b3c 73b7 a6bd a4ec d138 7c51 32bd
000003b0: ddf0 363d ce8e 233d e673 e2bc f96a c93d
000003c0: e9ad 3d3e 47a1 1ebc 653d 4b3d 9f60 51bd
000003d0: 1ee2 a2bd 68d2 0b3e 2abd 4dbb dae1 82bb
000003e0: 66d3 043d 3002 273e bc79 ed3d c477 4abd
000003f0: f73d 9e3d 1b34 68bd bf82 053e 526b 673e
0.006236413 -0.07809763 0.07970602 0.021964666 -0.176384 -0.075024895 -0.09052439 -0.092011176
0.028474957 -0.27131784 0.04219352 -0.09509408 -0.018824236 0.20857437 -0.30571958 -0.015836596
0.097822934 -0.05438394 -0.022118034 0.0013153744 0.036391243 0.056770504 -0.10784867 0.013723237
-0.13203023 -0.029364036 -0.070690304 -0.023263644 -0.1557659 -0.09919381 0.020061087 -0.061313465
0.0057016797 -0.0034060606 -0.05211217 0.11203212 -0.027162839 0.092054375 0.15167607 -0.10285444
-0.0692199 0.04690468 0.06560488 0.008076723 0.04835268 -0.024803707 -0.020734256 -0.105747186
0.0008630485 0.06882116 0.014150636 0.24121536 -0.030483328 0.024311302 -0.16358294 -0.107414015
0.13318193 0.19574815 -0.11200563 -0.03930432 -0.014306305 -0.13249134 -0.06329742 -0.0123144165
-0.029748047 0.03081784 -0.12280172 0.1165498 0.06947235 -0.09878691 0.040931296 0.120582975
-0.17987482 0.102531835 0.00080994505 0.035901014 -0.07422762 -0.01583287 0.13829684 0.016274724
-0.013798921 -0.15987362 -0.0773739 0.105578735 -0.008007089 -0.095211156 0.023751039 -0.05634149
0.101178974 -0.21692409 -0.124060564 0.012360408 0.14314897 -0.034594703 -0.23648356 -0.021328984
0.060930695 -0.13976341 -0.023037532 0.21168603 -0.0122331 0.09584942 0.026948687 0.09050634
-0.07762473 0.09066508 -0.017156942 0.03869064 0.18297833 -0.10426506 0.0590653 -0.21575311
-0.06483208 0.20817518 -0.082220234 -0.03172181 -0.03434537 -0.11525482 -0.10390666 -0.028760618
-0.042257737 -0.119050205 -0.0542603 -0.04989046 -0.075848065 0.1326827 0.09098961 0.11456895
-0.07327828 -0.096100055 -0.06393094 -0.052230973 -0.025375858 -0.16755843 -0.047738064 0.052765857
-0.07739426 0.021571906 0.07483763 0.043713193 0.026419956 0.047216635 -0.0070722275 0.012697148
0.17487264 -0.015784573 0.019970618 0.06746928 -0.044094842 -0.08450109 -0.036549054 -0.059631635
0.031823236 0.10652323 0.05722451 -0.08618085 -0.14289969 -0.24312863 -0.0842093 -0.032514084
-0.048401266 0.07746166 0.00013224603 -0.18070793 -0.12737808 0.10981799 -0.0021465318 0.07959508
0.012365482 0.087691754 -0.0493194 -0.0030627756 0.19944966 -0.13205051 0.15613368 0.0058197095
0.07939163 0.037306275 0.07088753 -0.11453764 0.08718516 0.13496062 -0.013892365 0.1482718
0.08072811 0.07094539 -0.016514404 -0.16634583 -0.094249815 0.02412456 -0.07221612 0.015312512
0.028266719 -0.024023594 0.007315727 -0.12188694 0.039111614 0.05482326 0.09186728 0.052313134
0.08959439 0.084261745 -0.10902168 0.120920114 0.06130792 0.07707482 0.047696564 -0.0035856082
-0.20314012 0.1304151 0.04767723 0.061221506 -0.17926694 -0.02320948 -0.0014071375 -0.043788847
0.069152474 0.05912668 -0.044083685 0.015471315 -0.012933446 0.046533555 -0.047186397 0.013807504
-0.13234563 0.09763805 0.12894042 -0.19909975 -0.10723 -0.057060715 0.031378943 0.040108643
0.015355195 -0.08140459 0.00010009974 -0.04353474 0.0446633 0.03993111 -0.027643155 0.098348565
0.18523373 -0.009682006 0.049619097 -0.051117536 -0.07953285 0.13654482 -0.0031393268 -0.0039942088
0.032428168 0.16309428 0.115954846 -0.049430624 0.077266626 -0.056690317 0.13038157 0.22599533
